my_model.pth (torch, 927115 bytes, 92 tensors)

conv1.weight f4 [16, 3, 7, 7]
00000000: b55d a2bd 2640 4abd aae2 a33c 49d7 2bbd
00000010: 2928 7abd 17b0 5cbd 46df 2b3d b99e 383d
00000020: 0c63 6bbc fa7b 03bc cb0d 6cbd ccc5 963d
00000030: 90bd f93c 3a68 de3b 339e 61bd 1c44 5dbd
00000040: 02e3 8f3d 31dc a33d 6534 6e3d e4de 793d
00000050: 29c7 803d 3606 883c 9ae6 2d3c 6c8d 98bd
00000060: 7467 ba3a 0505 a83d 0615 c2bc 5350 7c3d
00000070: b977 813c 61d6 1c3c 4cf9 8e3d 8b23 9ebd
00000080: 93fc a83d 0506 75bd 0eb4 d7bc ef9d 403d
00000090: 6fe4 913d 04f6 85bd 8d21 323c 26a3 c5bc
000000a0: 11ba 05bd 0779 953b 374f 95bd 4b1b 1dbd
000000b0: 14d9 4f3b 92c3 0dbd 20f9 0bbd 4320 3abd
000000c0: fd95 5dbd cff2 4cbd 0e4a df3b 1725 613d
000000d0: 13ee 1e3d 11d1 853d 63de dc3c 205a 7a3d
000000e0: 22a1 423d 7dbd 473b c514 f0bb 181e fcba
000000f0: be88 923d f714 e93c 319c 043d 0924 3fbc
00000100: dae0 88bd e1c6 a73d 0092 8b3d 9b47 3bbc
00000110: f383 51bd 2a8d 8e3d e867 e33b 288c 343c
00000120: 830f 4d3d 6577 96bd ab1d a03c f2b6 18bc
00000130: 804b 09ba 5b3d 3bba a561 35bd 39a0 fd3c
00000140: 0dc5 7fbd 2b9e 0a3d de52 1f3d 543b 9cbd
00000150: 5d9a d2bc 90ea 33bd 9802 6cbd 4256 1e3c
00000160: d56a 0bbd d620 ea3c aaeb 41bd c7dc 69bc
00000170: db1a 96bd 3e53 4b3d 6fba 723d cd3b 4a3d
00000180: 8f65 843d 4aa9 483c ca6d 513d f280 2fbd
00000190: a09c 4c3d 808c 18bc c3c1 533d 48b3 623d
000001a0: da3b 3a3d 1599 673d 98c8 41bd 8d13 093d
000001b0: f878 963d 2545 2bbd ae85 083d b752 ebbb
000001c0: 1e09 07bd 060d 093a a3e6 843d a7a8 fcbc
000001d0: e351 75bd 745d a03d 1869 4d3b 036a a63d
000001e0: 41be 48bd 7b5d 9c3d 08c1 73bd d4f8 bb3c
000001f0: 5c55 013d 984b 21bd feaf c7bc eded 9bbc
00000200: 0dc8 75bc 55ec 653d 49aa b7bc 25ff 83bd
00000210: 5339 67bc 6e1f 2cbc a747 413d 4704 7a3d
00000220: 4140 eebc d058 a1bd 1a82 d93c 4652 29bd
00000230: edd1 1dbd dbd9 67bc 27e5 233d aa95 a43d
00000240: 8a0a 983d 82c4 463c f9f1 953d c237 e43c
00000250: 10fa 583d 7cd8 123d f4d1 d1bc bc6d a83b
00000260: 6e78 22bd a3b4 9e3d dd1e 63bd 1a64 3dbd
00000270: 918e a03d 0d20 693d f43a 2a3d 569d a7bd
00000280: 532e 8f3d 6f37 943d 623d 3abd 9a13 35bd
00000290: 5b41 69bd dcac abbd b6b9 853d f2a4 44bb
000002a0: 71b9 943d 1d33 01bd d00b a0bd be15 69bd
000002b0: dfe8 eb3c b2d5 a23d 46b6 393d 0135 8c3d
000002c0: 9512 87b9 c63f a33d 44d2 06bd c6da f0bc
000002d0: f947 663d 0605 02bc 41f9 0f3d 556a 843d
000002e0: 6b55 29bd 3bfa 613d 0923 a53c 13f8 ec3c
000002f0: 3878 05bd 5e90 55bd c5e2 febc 73e6 2f3d
00000300: 1d4e 23bd c977 95bb 062d 8aba 0daa efbc
00000310: 5c79 99bd cab1 a93d e75e 58bd bff2 6dbd
00000320: 9199 443d 8112 52bd 482a 213d f162 9d3c
00000330: 1139 e8bc cc44 83bd 16a4 08bb f9c1 5bbc
00000340: 1cdd 7b3d 696b a73c b156 6c3c 2430 d4bb
00000350: 31e7 aabc e411 8fbd b2dc dbbc b9f8 793d
00000360: 4a16 7abd 4576 9a3c 9e35 cebc f187 4dbd
00000370: c31a 98bd ee59 4ebb 6b83 763d 9417 14ba
00000380: f1ab 403d 18aa 2d3c fed3 123d f541 a13d
00000390: 9760 93bc c134 e4bc 663c 99bd 7c87 ab3d
000003a0: 3d6e a43c 5d78 90bd d871 bdbc 2154 99bc
000003b0: 68c2 68bc 276e 9ebd 8199 463d fb88 87bd
000003c0: 15aa d1bc 30c5 6abd f526 8ebd b4da 5bbd
000003d0: 3a9f 903d e86e 22bc 7835 77bc 828e 41bd
000003e0: 8793 81bc a2b9 5d3d c78f 433b b994 673d
000003f0: 8031 993d 0eda 23bd a714 853c 0212 893d
-0.079280294 -0.049377583 0.020005543 -0.04195336 -0.061073456 -0.05387887 0.041960977 0.045073245
-0.014366876 -0.008025164 -0.05763034 0.073619455 0.030485898 0.006787327 -0.05508251 -0.054020032
0.0702572 0.080009826 0.058155436 0.06100358 0.06287987 0.016604524 0.010614062 -0.07448849
0.0014221505 0.082040824 -0.023691665 0.06160004 0.015804159 0.009572596 0.06981143 -0.07721623
0.082513 -0.059820194 -0.026330974 0.047025617 0.071236484 -0.065410644 0.010872257 -0.024125647
-0.03264815 0.0045615467 -0.072905 -0.038356107 0.0031715082 -0.03461034 -0.03417313 -0.045440923
-0.054098118 -0.050036248 0.006814248 0.054967012 0.038801264 0.06534017 0.026961511 0.061121106
0.04751695 0.0030477934 -0.0073266947 -0.0019235043 0.07154988 0.02845238 0.03237552 -0.011666306
-0.06683512 0.0819223 0.06814957 -0.011430646 -0.051151227 0.06960519 0.006939877 0.011019744
0.05006362 -0.073469914 0.019545397 -0.009320961 -0.00052373856 -0.00071426266 -0.044282574 0.03096019
-0.06244378 0.033842247 0.038897388 -0.076285034 -0.025708372 -0.043924868 -0.05761966 0.00966412
-0.03403743 0.02858011 -0.047343887 -0.014273829 -0.07329341 0.049639933 0.05925983 0.049373437
0.06464683 0.012247393 0.051130094 -0.04284758 0.049954057 -0.009310842 0.051698457 0.055346757
0.045467235 0.056542475 -0.04731044 0.03346591 0.07347292 -0.04181399 0.033330612 -0.0071814912
-0.03296768 0.0005228076 0.06489303 -0.030842138 -0.059892546 0.07830325 0.0031343158 0.08125689
-0.049009565 0.076350175 -0.05951026 0.022945799 0.031575546 -0.039378732 -0.024375912 -0.01903435
-0.015001309 0.056133587 -0.022420065 -0.06445149 -0.014112788 -0.01050554 0.047187474 0.061039235
-0.029083373 -0.07878268 0.026551295 -0.041338228 -0.03853028 -0.014151062 0.04001346 0.08036359
0.07423885 0.012131812 0.07321543 0.027858619 0.052972853 0.035850987 -0.025612809 0.0051400345
-0.039665632 0.077492975 -0.055449355 -0.046238042 0.078396924 0.05691533 0.04156013 -0.08184306
0.069912575 0.072371356 -0.045468695 -0.044208147 -0.056947093 -0.0838258 0.06529562 -0.0030005542
0.07261933 -0.031542886 -0.07814753 -0.0569055 0.028797565 0.079509154 0.045339845 0.06846047
-0.0002576305 0.07971148 -0.03291537 -0.029401194 0.056220982 -0.007935768 0.035149816 0.06465594
-0.041341227 0.05517028 0.020158308 0.028926885 -0.032585353 -0.052139632 -0.031113992 0.042944383
-0.039869417 -0.0045613986 -0.0010541982 -0.029255891 -0.074938506 0.08285864 -0.05282488 -0.05809283
0.047998015 -0.051287178 0.039346963 0.019212218 -0.028347524 -0.06409606 -0.0020849756 -0.013412946
0.061490163 0.02043696 0.014424966 -0.0064754654 -0.020862194 -0.06985834 -0.026838634 0.061028216
-0.061056413 0.018855223 -0.025172051 -0.050178472 -0.074269794 -0.0031486708 0.060183924 -0.00056492654
0.047038976 0.010599636 0.035846703 0.078739084 -0.017990394 -0.027857186 -0.07482223 0.08375451
0.020072097 -0.070542075 -0.023125574 -0.018716874 -0.014206506 -0.07735854 0.048486236 -0.06617924
-0.025593797 -0.05731696 -0.06941024 -0.05367537 0.0706162 -0.009914137 -0.015088432 -0.047255047
-0.015817417 0.05413211 0.0029840337 0.056538317 0.074801445 -0.040002875 0.0162452 0.06692888

conv1.bias f4 [16]
00000000: 4017 6c3c c019 163d a521 923d c2b3 51bd
00000010: a49b 35bd 4bb9 19bd c299 c43c 1672 363d
00000020: cfcf fd3c 052c 7d3d e2c2 913d 57bb b23c
00000030: 1203 45bc 0a6d 2bbd 7f25 30bd d4a8 30bd
0.01440984 0.03664565 0.071353234 -0.05119682 -0.044337884 -0.037530225 0.023999099 0.044542395
0.03098288 0.06180956 0.07117249 0.021817846 -0.012024658 -0.041852035 -0.04300451 -0.043129757

bn1.weight f4 [16]
00000000: d0dd 7f3f 0b15 803f 04ff 7f3f c402 803f
00000010: e90b 803f 83cd 7f3f 69d5 7f3f ee0b 803f
00000020: 05b7 7f3f b431 803f 1ca8 7f3f 9203 803f
00000030: f717 803f 79af 7f3f 6ee5 7f3f ede9 7f3f
0.99947834 1.0006422 0.999985 1.0000844 1.0003635 0.9992296 0.99935013 1.0003641
0.9988864 1.0015168 0.9986589 1.000109 1.0007313 0.99877125 0.99959457 0.9996632

bn1.bias f4 [16]
00000000: 9a59 ebb8 d474 feb8 d0c3 99b9 0838 21b9
00000010: 33bd b8b9 20be 43ba 158d a637 a469 68ba
00000020: 3492 e9b9 2dc7 ffb9 5482 f1b9 9d4a 07ba
00000030: dcc2 b039 e9dc 3dba d0fe 13ba c819 41b9
-0.00011222363 -0.00012133425 -0.00029328326 -0.0001537503 -0.0003523618 -0.00074669905 1.9854439e-05 -0.00088658393
-0.00044550153 -0.00048785788 -0.00046064204 -0.00051609596 0.00033714517 -0.0007242696 -0.0005645575 -0.00018415519

bn1.running_mean f4 [16]
00000000: 1bea dcbd 4dcb 1dbd 5460 193e bc40 8a3c
00000010: a8b5 97ba fe0b 993d 8502 fd3d 0024 263d
00000020: fe6f 93bb 5160 b13d 4c13 fc3d a3e6 a5bc
00000030: 98d6 2ebc 97d9 073d fa8a 68bc 02b8 28be
-0.107868396 -0.03852396 0.14978153 0.01687657 -0.0011574524 0.074729905 0.12353996 0.040561676
-0.0044994345 0.08660949 0.12308368 -0.020251578 -0.01067128 0.033166494 -0.014193291 -0.16476443

bn1.running_var f4 [16]
00000000: 9844 5c3f 307d fd3d 877b b73e ab5b 143f
00000010: 88a5 ff3e e464 7e3e 8d66 223f 22c5 aa3e
00000020: 91e2 c53d 6b56 b43d 9e1b 823e ed83 373e
00000030: 8348 8f3e 7531 9f3d 20eb 553e 46a6 f23e
0.86042166 0.12377393 0.3583643 0.57952374 0.49930978 0.24843174 0.6343773 0.33353525
0.09662355 0.088055454 0.25411695 0.1792142 0.2798501 0.07773105 0.20890474 0.47392482

layer1.0.conv1.weight f4 [16, 16, 3, 3]
00000000: cfb7 a7bc 4cf5 383d 4266 613d 1d00 193d
00000010: e463 15bd 5dc7 6fbd 0e16 153d 58d8 f1bb
00000020: cb13 1d3d 6592 17bd 7027 f3bc 8ae8 18bd
00000030: 8fe3 da3c 5505 de3c 30e2 07bd ab30 933d
00000040: 61f0 773d 676b 9f3c e586 6fbc d2a0 94bd
00000050: 232a ebbb 3866 903b b7c9 be3c 2085 bebc
00000060: 5f9c 4fbc cb5a a6bd 2629 b03c 8dc1 af3c
00000070: e29a 883d 4a99 6b3d 8afa 463d f7aa 6f3d
00000080: badf 453c 313d 97bc 9c50 aebc 4cfc 2bbd
00000090: 3229 ebbc bd18 503b e401 17bc a20e e4bc
000000a0: cc16 a6bd 596d bcbb 621f b53b f691 58bd
000000b0: a65b a1bd 9743 a53d e3eb a3bd 4dff 7b3d
000000c0: 2d72 70bd 6a11 7c3d 8501 6f3d 3c28 67bc
000000d0: aec1 12bd 379f ad3b 4515 2ebd fc1e 3abc
000000e0: 49e8 8c3d fc60 06bd 11a2 203d 7deb 9ebc
000000f0: 9322 a83c e2dc e4bc f4e4 1abc 8a15 70bd
00000100: 001f 2fbd 7e9b c7bc 61eb 8abd 176e bb3c
00000110: d803 793d a3f3 a8bd bed4 8dbd 3f72 e33a
00000120: 8af3 343b d858 07bc 1c96 033d aa80 843d
00000130: 41e2 803d 85b0 91bd cf41 913c 2619 f9bc
00000140: a3d0 9b3d 7722 8cbc 0c2d 993d 489c cdbc
00000150: 3e18 0a3b 6748 96bd 6e6b 633d 6c10 ba3c
00000160: 4bdf d93c c3ff 923c a5e4 3ebc eb7e 693d
00000170: ad0a 1dbd 4935 1b3d 502e 3e3d 4564 a5bd
00000180: cb6c 103b c04f e8bc e607 abbd 4900 783d
00000190: 92ef 95bd 5ab2 3abd 5988 b8bc 718e 5ebd
000001a0: 3afc 3e3c a91b 653d 99ba ecbc d71f 8e3d
000001b0: 503d 1c3d 0d89 9c3d b3c1 b1bc 12e4 38bc
000001c0: 2e52 ae3d 13ee 113d cc20 94bd 1520 c23c
000001d0: 2fc7 6d3d 72b3 533d 1eb1 a63c cc98 913c
000001e0: 2d5f bcbb 9cca 533d da40 e53c 0300 31bd
000001f0: c038 6d3d 5c26 d33c f76a eebc 4c30 9a3c
00000200: f567 8fbd d12f 9b3d 0792 003d 00a2 fabc
00000210: 1e6c ba3b f70b 983c 5ec1 abbb 1f85 60bd
00000220: f428 8dbb efd6 1e3c 79be c6bb b3c2 7abc
00000230: 83c3 82bc 606c 433d 2f94 a1bb f0e9 97bd
00000240: 14e0 27bd 5aae 523c f92f e8bc 31fe 98bd
00000250: 5f46 85bd d2dd 053d a588 693d 8cd5 09bd
00000260: 3e93 5fbd 2a60 333d ec90 463c 6288 6b3d
00000270: a183 8c3d 003d 1f3d 7836 87bd 88ce fdbb
00000280: b99b bcbc f176 a63d 6265 88bd 37e2 99bd
00000290: d7a9 87bd 3dd6 8c3d 2593 9c3c 13fb 37bd
000002a0: c157 15bd 6a82 aabc d209 e8bc 0d18 953b
000002b0: 43a6 d2bc 4e17 95bd e064 3cbb 258e 8d3a
000002c0: 35de adbc b20d ea3c b258 0e3d 5e03 1fbd
000002d0: 662a a1bd 7132 d33b e8c5 4a3d a7f3 98bd
000002e0: 3334 a2bc 6633 a43d c19b 463d 243a 0c3c
000002f0: b39a c33c 9542 10bc f100 04bd 730f 23bd
00000300: 4a2c a2bd d6a2 ab3d 99b5 fc3c eb18 643d
00000310: 23a2 323d fcb3 4a3c 07a8 763c 78bf 56bc
00000320: 53da 01bd 35f3 02bd f104 5a3c 03f3 3bbc
00000330: 6e4d b13c 7b81 0a3d 28a5 bc3a 9fda 2dbc
00000340: 2c70 363d e194 01bd 8e49 383c 1ec3 12bd
00000350: 87d6 27bd cb91 85bd b31b 8abd ca36 81bd
00000360: 72cc 983d 1bbe d73c bb01 b93c d328 143d
00000370: 46fa 463d eda9 51bd a8e4 a7bd 5a51 9cbd
00000380: 58ac a93d 56e7 e2bb f892 0ebd c195 1f3d
00000390: c299 c5bc de57 1f3c 1e23 673a 51ca 843d
000003a0: 9ec2 8dbd 46f6 a33d 5360 87bd a836 323d
000003b0: eb50 90bd 2ff0 44bd bdd9 97bd bf46 073d
000003c0: 93cf 72bd 722d 483d ee80 8ebd e93c 3abd
000003d0: 7507 373d c005 80bd cb0a 92bd 4f6b 8a3d
000003e0: 241b ff3c 2839 84bd 44fe 91bd bc52 793c
000003f0: 47a1 51bd add1 133d 84a7 b73b 8f05 5dbd
-0.020473389 0.04515581 0.05502916 0.037353624 -0.036472216 -0.058539737 0.036397986 -0.0073805265
0.038348954 -0.037004847 -0.029681891 -0.03733114 0.026719837 0.027102152 -0.033174694 0.07187017
0.060531978 0.019460393 -0.014619564 -0.072572365 -0.007176654 0.0044067167 0.023289545 -0.023256838
-0.012671559 -0.08122786 0.021503996 0.021454597 0.066701666 0.057519235 0.048578776 0.058512654
0.012077266 -0.018461796 -0.021278672 -0.041988656 -0.028706167 0.0031753026 -0.009216759 -0.027839009
-0.08109817 -0.00575034 0.0055274228 -0.052873574 -0.07878809 0.08069532 -0.08003976 0.06152277
-0.058702637 0.061540045 0.05835106 -0.014108714 -0.03582924 0.005298521 -0.042500753 -0.011359926
0.068802424 -0.032807335 0.03921706 -0.019399399 0.020524299 -0.027937356 -0.009454001 -0.05861429
-0.042754173 -0.024366137 -0.06783176 0.022879643 0.06079468 -0.08249595 -0.06925343 0.0017352774
0.002761098 -0.008260928 0.032125577 0.06469853 0.062931545 -0.071137466 0.017731575 -0.0304075
0.07608154 -0.017106278 0.07479295 -0.025098935 0.0021071578 -0.073380284 0.055522375 0.022712909
0.026595732 0.017944222 -0.011651193 0.057005804 -0.03834026 0.037892614 0.046430886 -0.080757655
0.0022037502 -0.02835834 -0.08351116 0.060547147 -0.07321085 -0.045580246 -0.022525953 -0.05433506
0.011656815 0.055934582 -0.02889757 0.06939667 0.03814441 0.07643328 -0.021698808 -0.011284845
0.08511768 0.035627436 -0.07232818 0.023696939 0.058051284 0.051684804 0.020348128 0.017773055
-0.0057486505 0.051706895 0.027985025 -0.0432129 0.05791545 0.025775127 -0.02910374 0.018821858
-0.0700225 0.0757748 0.031389263 -0.030594826 0.005689158 0.018560393 -0.005241557 -0.054814454
-0.0043078605 0.009694799 -0.0060651866 -0.015305209 -0.015962368 0.047710776 -0.004930995 -0.07417667
-0.040985182 0.012858951 -0.028343188 -0.07470358 -0.06507563 0.032682247 0.05701508 -0.03365092
-0.05458378 0.04379288 0.012119513 0.05750311 0.06861044 0.038876534 -0.06602186 -0.0077455677
-0.023023473 0.08128155 -0.06659962 -0.0751385 -0.06624191 0.068768 0.019113133 -0.044917177
-0.03646064 -0.02081414 -0.028324995 0.004549986 -0.025714045 -0.07279836 -0.002874665 0.0010799809
-0.02122412 0.028570984 0.034752555 -0.03882157 -0.07869415 0.006445222 0.049505144 -0.07468348
-0.019800281 0.08017616 0.048488382 0.008558784 0.023877477 -0.008804937 -0.03222746 -0.039809655
-0.07918604 0.08380668 0.030848311 0.055687826 0.043611657 0.012372013 0.015054709 -0.013107173
-0.03170235 -0.03197022 0.013306842 -0.011471513 0.021643367 0.03381489 0.0014392482 -0.010611205
0.04454057 -0.031636123 0.011248006 -0.03583061 -0.040976074 -0.065219484 -0.067435645 -0.06309278
0.0746087 0.026335767 0.022583833 0.036171746 0.048578523 -0.051187444 -0.081979096 -0.07632704
0.08284825 -0.00692455 -0.03480813 0.038961176 -0.024121169 0.009725539 0.00088171836 0.06483901
-0.06921886 0.08005957 -0.06610169 0.043509156 -0.07046684 -0.04808062 -0.07414577 0.033026453
-0.05927999 0.048871465 -0.06958185 -0.045468245 0.044684846 -0.06251097 -0.07130965 0.06758749
0.031140871 -0.06456214 -0.071285754 0.015217479 -0.051179197 0.036088634 0.005604686 -0.05396038

layer1.0.conv1.bias f4 [16]
00000000: 89f3 a5bd 3c6b 75bd 09df fe3c b743 913c
00000010: ad6a 793d c7e1 6c3d edf9 953d f097 cb3b
00000020: 3fdd 943d e6e0 30bd 1fe1 67bd c33c e9bc
00000030: bcda 10bd 0480 93bd 7d95 643d afff 31bd
-0.08103091 -0.05991672 0.03111221 0.017732484 0.06089275 0.057832506 0.0732306 0.0062131807
0.07268762 -0.04318323 -0.056611177 -0.028471356 -0.03536485 -0.072021514 0.055806626 -0.04345673

layer1.0.batch1.weight f4 [16]
00000000: 6dc6 7f3f 5805 803f 1712 803f 9dcd 7f3f
00000010: 2fce 7f3f c506 803f a520 803f 1be3 7f3f
00000020: a505 803f 9fb7 7f3f 2e0f 803f e409 803f
00000030: 59e4 7f3f cac9 7f3f 8845 803f 48ec 7f3f
0.9991215 1.0001631 1.000552 0.99923116 0.99923986 1.0002066 1.0009962 0.9995591
1.0001723 0.9988956 1.0004632 1.0003018 0.99957806 0.9991728 1.0021219 0.9996991

layer1.0.batch1.bias f4 [16]
00000000: 94c6 4dba bdf0 a939 b289 77b9 90d7 27ba
00000010: 278f 7bba ab03 4639 3725 a439 1dd6 b9b9
00000020: f3fe e138 0088 85ba f19c c438 eb27 85b9
00000030: 4d37 38ba 7660 0fba 98d1 aa39 8197 8fb8
-0.000784972 0.00032413556 -0.00023607051 -0.0006402666 -0.00095962215 0.00018884118 0.00031308245 -0.00035445477
0.00010776324 -0.0010187626 9.375241e-05 -0.00025397478 -0.00070272834 -0.0005469391 0.00032581086 -6.846991e-05

layer1.0.batch1.running_mean f4 [16]
00000000: 62ef 75bd eb4d 0ebf d5e0 90be f897 4cbd
00000010: ee8b a23e a2bb 4d3e c783 d23d 1e65 55bc
00000020: 97a6 d63e ffa1 cdbe 3456 033d ca48 883e
00000030: 1dd7 d6be 4874 843e acb4 d03d 594d 08be
-0.060042746 -0.55587643 -0.28296533 -0.049949616 0.31747383 0.20091107 0.10279041 -0.0130245965
0.41923973 -0.40162656 0.03206463 0.26618034 -0.41960993 0.25869966 0.101907104 -0.13310756

layer1.0.batch1.running_var f4 [16]
00000000: 9497 943d 906c 613e 0547 783d a64b 4a3d
00000010: 91cf 543e 9014 c23d b6fb b63d 5004 093e
00000020: 5019 923d fce3 933d b945 4c3e 39c7 333e
00000030: 5983 dc3d 53b5 9b3d a9b2 ac3d 8663 2c3d
0.07255474 0.2201407 0.060614605 0.04938855 0.20782305 0.09476578 0.08934729 0.13380551
0.07133734 0.07221219 0.19948472 0.17556466 0.1076724 0.07602944 0.08432514 0.0420871

layer1.0.conv2.weight f4 [16, 16, 3, 3]
00000000: 0f77 51bd 3f4a f1bc 68bf 46bd 30d8 24bb
00000010: fe8a 603d 33f3 873d 4dc0 2ebc 5df6 0f3d
00000020: 1780 11bc 5884 37bd 6d06 0dbd da66 ba3c
00000030: a216 c3bc b0c0 073c e975 e73c 31d1 823d
00000040: c5c6 573b 8e10 9f3d cbbd 74ba 4b04 a9bc
00000050: 2ea4 b93c effc 043d 1d14 af3c 0c50 34bc
00000060: b58a 343d dfda b23c 6de9 8bbd e8d3 b73c
00000070: edfa 91bd 9898 63bd e08b 9a3c 0960 4f3d
00000080: 2f82 ae3c c2aa 913d f63b 35bd cd24 573d
00000090: 3e3d 3b3d 2ef6 c13c a19d 1dbd c187 8e3d
000000a0: a2a4 473d 7932 2e3d c2b6 703d c122 aa3c
000000b0: 1a02 76bd d418 33bc 974a 243d bf58 463d
000000c0: 4684 7dbd 05a7 9ebc 39ba c93c 1230 a7bd
000000d0: c80a 783d b2fc fb3c d5a6 61bc d2c6 55bd
000000e0: fe53 f2bc 5da5 6d3d 55d1 763d 3c34 8abd
000000f0: e9fa 7a3c b276 84bd 5709 503d 4fff 54bd
00000100: 0f50 bebc d226 67bd 387f 7bbc cc5d 053d
00000110: 376d 07bc f4aa 91bd f253 2abd ca9f 14bd
00000120: 2f76 78bc f4fa 93bd 8661 933d 9689 9b3d
00000130: 0a2e 413d 1857 5cbd b386 d5bb cd2d 8cbc
00000140: 44eb 07bd cf68 bebc c60b 943d df7c c83b
00000150: 6c31 47bd e492 edbb ba70 8abd 90b3 5a3d
00000160: 0b80 4cbd cf43 3b3b 4e6a 033d b129 a3bb
00000170: a99c 0b3d 7c12 2e3d fcdd 723c b051 3ebd
00000180: f3fa a33d 95f7 9fbd 3010 953b d336 a3bd
00000190: 0a23 ec3c fea8 5b3b 43b7 a4bd dc56 683d
000001a0: 98d5 43bd f9d3 be3a 0d8e 7b3d 07e9 363d
000001b0: 46b2 733d 4647 833b 11bb a63d f20d 0dbc
000001c0: 384f 97bd cc17 223d c809 f1bc ce9e 36bd
000001d0: 010e 6a3d 7c60 ea3c 9436 323d 25f5 e73c
000001e0: 1a57 9a3c 46fd 7cbd 5c78 923b e929 8a3d
000001f0: 8b89 c13c 3a21 1abd 3e42 1bbd 98fd 213d
00000200: 44ff 8c3d 72b4 98bc ddcf 9c3d dd91 473d
00000210: dd31 a7bd 062e 02bd af4b 87bd 2ec1 3e3d
00000220: 5f77 82bc 98b8 2cbd ae41 3a3c 2657 29bb
00000230: 59a9 58bd 4c5c 0ebc e26a 60bd f90b 313d
00000240: 4d6c 1bbc 287c eb3c bab4 15bd 8552 0a3c
00000250: 401c 86bb 90d9 79bd b92d f7bc 60cc 02bd
00000260: 432b 28bd ee03 613d e257 fb3c a763 9abd
00000270: d901 9cbc ef98 1bbd b634 0a3b 8a78 a4bd
00000280: cb68 8a3d 7190 f7bc 3d90 493d 498b debc
00000290: 1ef8 aa3a 3475 dc3c a0cb b4bc c846 353d
000002a0: 893c 883c 9a04 b13c 46a2 8f3c f269 3a3b
000002b0: 977b 8ebd 084b f8bc e82d e3bc 9993 8dbd
000002c0: bb29 a6bd 7839 3c3b b3d2 683c 73af 843d
000002d0: 1086 353d 83dc 893d bde3 eabc eead 92bd
000002e0: 00e3 a8bc ea60 423d 8e72 6ebd 9552 4fbd
000002f0: 95b2 98bd 0869 993d deed 3c3d cb5b 3d3c
00000300: 0ce5 f63c 9076 013d 6410 91bc fdff fe3c
00000310: 549f 3dbd 6a39 563d bab0 5c3d 7d84 a23d
00000320: 1f91 573d cef9 8bbd e5f2 303d a49c 96bd
00000330: 052a 063c 647e a5bc 0936 433d 4e36 eb3c
00000340: 9a76 32bd 421f 073d e318 213d 40a8 2dbc
00000350: f5ab a63d 4b97 053d 9654 c2bc ce57 b6bb
00000360: 8519 3fbc dc5a 89bb a3a7 9b3d 3da6 323d
00000370: 1a85 05bd 4570 78bd 6409 e33b 860c ae3c
00000380: 84b6 03bd 4232 0f3d 1496 223c bbc2 263d
00000390: 78e8 603c bac8 893c 12c9 063d 8804 573b
000003a0: ac9c 8b3b 229e 893d c75b 063d 1b8b 053d
000003b0: b548 9cbd d805 323d 97ad 2abc 4a24 913d
000003c0: e1ad 4c3d 1852 973d 68d2 9dbb 92b5 8f3d
000003d0: 05e9 3b3d 45d0 ae3c af52 15bd 50c9 8cbd
000003e0: 1436 17bc 9c68 873d 4514 5bbd e94e 853d
000003f0: 23bf 8f3d f585 1fbd c508 a43d aa04 bc3c
-0.051138934 -0.029454349 -0.048522383 -0.0025153272 0.054820053 0.066381834 -0.010665965 0.03514706
-0.008880637 -0.044803947 -0.034429956 0.022754122 -0.023814503 0.008285686 0.028254466 0.06387556
0.0032924872 0.077668294 -0.00093361427 -0.02063193 0.022661295 0.03246778 0.021371895 -0.011005413
0.044077594 0.021832881 -0.06831632 0.022439912 -0.071279384 -0.055565447 0.018865526 0.050628696
0.02130231 0.071126476 -0.044246636 0.05252533 0.045712702 0.023676958 -0.038480405 0.06959487
0.04874099 0.042528603 0.05876804 0.020768525 -0.060060598 -0.010931212 0.040110197 0.04842448
-0.061893724 -0.01936675 0.02462493 -0.081634656 0.060557157 0.030760143 -0.013772686 -0.052191563
-0.029581066 0.05801903 0.06025823 -0.06748244 0.015318611 -0.06467952 0.050790157 -0.052001294
-0.023231534 -0.056433506 -0.0153501555 0.032560155 -0.008265785 -0.07112685 -0.041583963 -0.0362852
-0.015164896 -0.072256 0.071963355 0.07594602 0.047163047 -0.053793997 -0.0065163015 -0.017111683
-0.03318335 -0.023243336 0.07228808 0.0061184014 -0.048631117 -0.0072501767 -0.06759782 0.0533939
-0.0499268 0.0028574353 0.032083802 -0.0049793352 0.03408495 0.042498097 0.014823433 -0.046464622
0.08006849 -0.078108944 0.004549049 -0.07969441 0.028825302 0.0033517475 -0.08042767 0.05672346
-0.04781112 0.0014559022 0.061414767 0.044655826 0.059496187 0.004006299 0.08141149 -0.008609282
-0.07388157 0.039573476 -0.02942361 -0.04458504 0.05714226 0.02861046 0.04350908 0.028315136
0.018840361 -0.061764978 0.0044699144 0.06746275 0.023625156 -0.037629344 -0.03790497 0.039548486
0.068846256 -0.01864073 0.07656834 0.04872309 -0.081638075 -0.031782173 -0.066062324 0.04657095
-0.015926061 -0.04216823 0.011368198 -0.0025839298 -0.052895878 -0.0086889975 -0.05478943 0.04322431
-0.00948627 0.028745726 -0.036549307 0.008442526 -0.004092723 -0.0609985 -0.03017317 -0.03193319
-0.041056883 0.05493539 0.030681554 -0.075385384 -0.01904385 -0.037987646 0.0021088547 -0.080308035
0.06758269 -0.030220242 0.049209822 -0.027166026 0.0013043915 0.026911356 -0.022069752 0.044256955
0.016630428 0.02160864 0.017533433 0.0028444496 -0.06957167 -0.030309215 -0.02773185 -0.06912918
-0.08113428 0.0028720777 0.014210391 0.06478777 0.044317305 0.067315124 -0.028673047 -0.07162081
-0.020616055 0.047455706 -0.058214717 -0.050615866 -0.07455937 0.07490736 0.046125285 0.01155753
0.030138515 0.03160721 -0.017708011 0.031127924 -0.046294525 0.052300848 0.053879477 0.079354264
0.052628633 -0.06834756 0.043200392 -0.073540956 0.008188729 -0.02020187 0.047658954 0.028712418
-0.04357014 0.032988794 0.039330374 -0.010599196 0.08138267 0.032614987 -0.023721974 -0.0055646664
-0.011663799 -0.0041917395 0.076003335 0.04361557 -0.03259764 -0.060653944 0.0069286097 0.021246206
-0.032156482 0.03496004 0.009923477 0.040713053 0.0137273 0.016819347 0.0329066 0.0032809097
0.00426062 0.067196146 0.03280237 0.032603364 -0.07631055 0.043462604 -0.010417364 0.07087
0.04997051 0.07388705 -0.004816342 0.07017054 0.04587652 0.021339545 -0.036455806 -0.06874335
-0.009229202 0.066117495 -0.053486127 0.065091915 0.07018878 -0.03894611 0.08009485 0.022951443

layer1.0.conv2.bias f4 [16]
00000000: d5f0 a33b 459d be3c d126 283c cf87 a7bd
00000010: df23 60bd 22ee 603d ef26 39bd a112 64bd
00000020: 96e4 e9bc 2875 053d 0ef1 dd3c 0648 9bbd
00000030: 3434 8e3d cf16 a73d fef5 123d 39ce 9ebc
0.0050030746 0.023268351 0.010263161 -0.081802 -0.05472171 0.0549146 -0.045203146 -0.05568183
-0.028551381 0.032582432 0.027092483 -0.07582097 0.06943551 0.08158647 0.035879128 -0.019385444

layer1.0.batch2.weight f4 [16]
00000000: 38e8 7f3f 1b23 803f 0902 803f e20e 803f
00000010: bee5 7f3f b7ed 7f3f 9509 803f e5d5 7f3f
00000020: 0929 803f 4507 803f f21d 803f 40ed 7f3f
00000030: 85cc 7f3f 800c 803f a902 803f a90c 803f
0.9996371 1.0010713 1.0000621 1.0004542 0.99959934 0.999721 1.0002924 0.9993575
1.0012523 1.0002218 1.0009139 0.9997139 0.9992145 1.0003815 1.0000812 1.0003864

layer1.0.batch2.bias f4 [16]
00000000: 208f fbb8 d242 29b9 c30f eeb9 9f1e e8b8
00000010: 2f96 0db8 cb99 bdb9 35fb bbb8 d8c0 57ba
00000020: 871a 6637 5621 e8b8 5b43 36b8 339a 8639
00000030: 6525 3cb9 37f0 4fb9 9d59 2f3a 1d28 61b9
-0.00011995272 -0.00016141988 -0.0004540664 -0.00011068326 -3.375689e-05 -0.00036163474 -8.963646e-05 -0.0008230335
1.3715245e-05 -0.000110688314 -4.345491e-05 0.0002567336 -0.00017943008 -0.00019830545 0.00066890736 -0.00021472615

layer1.0.batch2.running_mean f4 [16]
00000000: 84eb d53d 76c2 dc3e 0f1c c63e 1dce 63bd
00000010: b3a4 83be 631a 08bd 014c 513b 051e ecbe
00000020: a69b 4d3e 6bd8 393e 51c9 5f3e ca95 4bbe
00000030: 111c 02be f972 a63d eb59 223e adfd 033e
0.10445312 0.43117112 0.38693282 -0.055616487 -0.25711593 -0.03322829 0.003193617 -0.46116653
0.20078906 0.18148963 0.2185414 -0.19881359 -0.12706019 0.08127398 0.15854613 0.12889738

layer1.0.batch2.running_var f4 [16]
00000000: 18fe 5f3d 7660 0e3e 7511 8b3e 9b96 153e
00000010: b0c6 123e 4954 a43d 3e1c c73d 36d4 323e
00000020: 220a 0a3e de3a f53d 5334 853d a162 9d3d
00000030: 69b6 803d 14b1 c43d dbed 163e ec12 b23d
0.054685682 0.13903984 0.27161756 0.14608233 0.14333606 0.080238886 0.09722184 0.17463765
0.13480428 0.11974119 0.06504121 0.076848276 0.06284792 0.096040875 0.14739172 0.08695015

layer1.1.conv1.weight f4 [16, 16, 3, 3]
00000000: 5f30 683d bd98 a1bd 18f9 a0bd 2359 3d3d
00000010: 7862 db3c 9dea 32bd 2c4d 153c d83d 9a3d
00000020: f88c 113c edb5 2cbd 403f 6839 6f16 01bd
00000030: a4ca 993d 46f7 ccbc eebf 673d d944 63bd
00000040: 1133 f23b 9365 92bd 016f 78bd b764 4d3d
00000050: d797 b2bc 2bd3 71bd be14 08bd d385 b7bc
00000060: 8a71 28bd af8b a4bd e85e 863d cb44 89bd
00000070: 0aab 8c3b fdb7 8a3c 7f38 973d 4e8e 163c
00000080: ea27 0a3d 963c 9fbd a5d6 283d dd95 92ba
00000090: 512d 9ebc ee4b edbc 618a 98bd 930c a7bd
000000a0: 7b8a 8b3d fc85 60bd fa4e a0ba 3539 863d
000000b0: 66fe 71bd bcd1 e23c fbe4 cabb e193 93bd
000000c0: fcc3 303b 975f 4b3d 3d50 a23d 85a6 f83c
000000d0: 6ed9 b639 c825 9f3d 4161 813c cdca 833d
000000e0: ee52 acbc 6dc9 14bd 37bc 083d 0024 8e3d
000000f0: cf23 0abd 063d 85bc 3bf0 68bd 9498 373c
00000100: d870 863d e538 8ebd 8692 973d aa29 8fbd
00000110: 2147 9dbd 6d75 e7bc 1cee f7bc 26e0 8b3d
00000120: d056 a6bd fb69 da3b 32c3 db3b 48a9 613d
00000130: bb9b 80bc f3c3 ccbc 404f 9dbb ec29 5d3c
00000140: 6764 31bd 88d4 a8bb f97c 7c3c 1462 56bd
00000150: 9e3c 14bd 8075 423b 6d03 94bd cc47 a33d
00000160: c3af 4cbd 4e63 08bd f116 08bb edb2 863d
00000170: e615 113d 846f da3b 71c0 5dbd 8059 ff3c
00000180: 1f0c 82bd 539a 933d 1d90 9a3d 5419 03bd
00000190: 254a 103d 4f4b 6f3c a485 913c d7ce 613c
000001a0: ebd6 793d 8ac9 703d 3f0d c13c 3066 9eba
000001b0: 2bd6 56bb a1b2 603d 7925 e13c 70fb 40bd
000001c0: ff30 70bd fa5b 1b3d 7188 8ebd f69e 043d
000001d0: efdb 5dbd 43a5 85bc e2f5 ae3c 2574 4ebd
000001e0: 9dfa 8cbc 76ff d63b 6d05 4f3c 0f8c 183b
000001f0: 1355 a53b 8c2a 49bb c002 273d 2181 dc3c
00000200: 1ec1 1abc 649a 713d 2fcb 8abd 6cef 65bd
00000210: 32b5 953d b99d 283c 9b35 3fbd fdd2 983d
00000220: 8b38 6fbc 5cbe a33d 1d09 85bd 948f a3bb
00000230: f4fe 5d3d 0804 ef3c 47f6 f0bc 12c9 d63a
00000240: 7ce3 58bc c193 613d ef92 9e3c 66bc 9dbc
00000250: 033c 563d e12b d73c c555 933d b0ca 5dbc
00000260: 6dd0 8abb ea0d 44bd 1448 9c3c e268 9ebd
00000270: ef09 85bd fbc3 2f3d 29b4 603c b71d 25bb
00000280: 9247 7d3d 79e0 2ebc d413 94bc a696 ba3c
00000290: 1bb4 83bc 0769 8f3d ccac 68bd 43ea 36bd
000002a0: a6d2 0c3d 2c14 ad3d 80ff ed3c 55a5 af3b
000002b0: cd0a 31bd 1560 3a3d 0a01 963d e28e 6bbd
000002c0: 7814 903d 7fe8 f1bc 5d79 1b3b fa80 aabb
000002d0: 5198 8bbd c294 7dbd 127c 403d 8d03 e5bc
000002e0: a4c6 4bbd 8f78 9cbd 7567 c2bc 4d77 b8bc
000002f0: 1048 07bd bb38 273d 1e60 d73c 18ee 66bd
00000300: 3b41 0f3d 1263 033d a4c9 2d3c 95a0 90bd
00000310: 0e09 ac3d 9f05 963d 7421 6d3d fc9c 64bd
00000320: 696a 053d cb82 8abd 943d bcbc b627 0f3a
00000330: a898 813d 594b 9d3d 7f38 5c3d 9e07 3b3c
00000340: d412 473d e650 f13c 069e e33c e022 a63c
00000350: 4184 6bbd c2c4 833d 43a1 64bc 6535 193d
00000360: c074 893d c580 963d c50a 3ebd 9c20 98bd
00000370: 6345 83bb d00b 57bd 3e79 993d e4f1 a3bd
00000380: db4e ce3c b8c7 773d 3620 04bc 6339 48bd
00000390: fc5a b3bb b47b 883d 7135 2a3c 250e 013d
000003a0: 3c96 7fbd e0c2 a43c c6c3 5e3d 0a4c aa3c
000003b0: cba1 9abd cc91 71bd 385c afbc 8879 72bc
000003c0: b692 75bd 55fe 4bbb 2f79 6b3d c389 9f3d
000003d0: beb5 bdbc aab0 033d 119e ab3c ca42 2b3d
000003e0: 9389 d23b 7afa cebc c11a 6bbd 5882 223d
000003f0: 6ef7 e23c 2751 633d 9fb5 18bc aafb 95bd
0.056686755 -0.07890461 -0.07860011 0.046227586 0.026780352 -0.043680776 0.0091126375 0.07531327
0.008883707 -0.042165685 0.00022148807 -0.031515535 0.07509354 -0.025020253 0.056579523 -0.05548558
0.0073913415 -0.0714828 -0.060652737 0.050144877 -0.021800919 -0.059039276 -0.033222906 -0.02240268
-0.041123904 -0.08034455 0.06561071 -0.06702574 0.0042928504 0.016933436 0.07383823 0.0091892015
0.03372947 -0.07775228 0.041220326 -0.0011183579 -0.019308718 -0.02896687 -0.07448269 -0.08156695
0.068135224 -0.054815277 -0.0012230568 0.0655388 -0.059080504 0.0276879 -0.0061918474 -0.0720594
0.0026972285 0.04965171 0.079254605 0.03035284 0.00034875743 0.07770878 0.015793445 0.064351656
-0.021035638 -0.036324907 0.03338262 0.0694046 -0.033725556 -0.01626445 -0.056869727 0.011205811
0.06564492 -0.069444455 0.07400994 -0.06990369 -0.076795824 -0.028254235 -0.030264907 0.06829862
-0.08122027 0.006665466 0.0067066187 0.05509308 -0.015699258 -0.02499578 -0.004800707 0.0134987645
-0.04330864 -0.005152289 0.015410655 -0.05233963 -0.03619062 0.0029672086 -0.07227216 0.079726785
-0.049972307 -0.03329783 -0.0020765627 0.06577096 0.035421275 0.0066661257 -0.054138605 0.031170607
-0.06349968 0.072071694 0.07547019 -0.032006577 0.03522696 0.014605357 0.01776392 0.013782225
0.060995977 0.058785953 0.023565887 -0.0012084898 -0.0032781463 0.054857854 0.027483689 -0.04711479
-0.058640476 0.037929513 -0.06959618 0.03237816 -0.054164823 -0.016314154 0.02135748 -0.050403733
-0.017209345 0.006561215 0.012635571 0.002327684 0.005045542 -0.0030695526 0.040774107 0.026917042
-0.009445457 0.05898513 -0.067770354 -0.056136534 0.07309951 0.01029151 -0.04668198 0.07462118
-0.014600883 0.079952925 -0.06495879 -0.004991481 0.05419822 0.029176727 -0.02941431 0.0016386828
-0.01323783 0.05507255 0.019357173 -0.019254874 0.052303325 0.02626604 0.071940936 -0.013537094
-0.004236272 -0.047864832 0.019077338 -0.077348486 -0.06496035 0.04291151 0.0137148285 -0.0025194713
0.061835833 -0.010673636 -0.018075861 0.022776913 -0.016077092 0.07002454 -0.056805417 -0.044657003
0.034380578 0.08451113 0.029052496 0.0053602853 -0.04322319 0.045501787 0.07324417 -0.05750931
0.07035154 -0.029529808 0.0023723461 -0.0052033635 -0.068161614 -0.061909445 0.046993323 -0.027955795
-0.049749985 -0.07640182 -0.023730973 -0.022517825 -0.03302771 0.040825587 0.02629095 -0.056379408
0.034974318 0.032076903 0.010607157 -0.070618786 0.084001645 0.07325291 0.05789323 -0.055813774
0.032572184 -0.06763228 -0.022978581 0.00054609345 0.06327945 0.07680387 0.053764816 0.01141539
0.04860194 0.02945752 0.027785312 0.020280302 -0.057499174 0.06434013 -0.013954463 0.037404437
0.067117214 0.073487796 -0.04639699 -0.07428095 -0.0040060743 -0.0525015 0.07493828 -0.08005121
0.025184086 0.0604932 -0.00806432 -0.048882853 -0.0054734927 0.066642195 0.010388718 0.03150763
-0.062399134 0.020112455 0.054385923 0.020788211 -0.07550391 -0.058976933 -0.021406278 -0.014799483
-0.059954368 -0.0031126936 0.057488617 0.07789948 -0.02315795 0.0321509 0.020949395 0.041811742
0.0064250915 -0.02526592 -0.05739856 0.039675087 0.027705874 0.055497315 -0.009320646 -0.07323392

layer1.1.conv1.bias f4 [16]
00000000: 52f7 a73c e2a2 573d 0d1f debc 5a2d e2bc
00000010: c820 503d 8b53 123d 5f22 613d e074 b8bb
00000020: c0e3 2fbd deac 1a3d d4a7 233d dc44 10bd
00000030: ee89 613d 78eb d53c 51bd 9e3d bbcf 47bd
0.020503674 0.05264557 -0.027114416 -0.027609516 0.050812513 0.035724204 0.05496442 -0.005629167
-0.04294181 0.037762515 0.039954975 -0.03522192 0.05506318 0.026113257 0.07750953 -0.04878209

layer1.1.batch1.weight f4 [16]
00000000: 05fa 7f3f 7f12 803f 2a03 803f 6a2d 803f
00000010: f404 803f 67dd 7f3f 6c06 803f e6e6 7f3f
00000020: 05f4 7f3f 0403 803f a801 803f efee 7f3f
00000030: 19d2 7f3f f7f6 7f3f 93c7 7f3f be02 803f
0.99990875 1.0005645 1.0000966 1.0013859 1.0001512 0.9994721 1.000196 0.999617
0.9998172 1.000092 1.0000505 0.9997396 0.9992996 0.99986213 0.999139 1.0000837

layer1.1.batch1.bias f4 [16]
00000000: 7d7d e5b8 5394 b839 dc66 fd39 4a05 c539
00000010: b706 5e39 1e3b 61b9 c0d9 6b39 7adc 91b9
00000020: d64e 9cb9 659a c138 c2cd 6e39 dec6 e0b8
00000030: 0d92 29ba 0980 fab9 3730 93ba 2603 fc38
-0.00010942945 0.00035205725 0.00048332557 0.0003757871 0.00021174071 -0.00021479695 0.00022492465 -0.00027820823
-0.00029813376 9.2317154e-05 0.000227741 -0.00010718194 -0.00064686016 -0.0004777911 -0.0011229579 0.00012016883

layer1.1.batch1.running_mean f4 [16]
00000000: 6e8c 92bd ada7 053f 0cf4 e0be c812 2d3e
00000010: 2c57 a1bd a131 dc3e 47eb d43e 7d2d 51be
00000020: 9d93 773c 9041 1ebe 93b3 cdbe 102d 46bf
00000030: c65d b63c 0c2b 97be 6f24 c5bc e6e0 c4be
-0.07155691 0.5220898 -0.43936193 0.16901696 -0.07877955 0.43006614 0.41585752 -0.20427509
0.015110877 -0.15454698 -0.40176067 -0.7741251 0.022261512 -0.2952503 -0.024065224 -0.38452834

layer1.1.batch1.running_var f4 [16]
00000000: 82aa 793e c2ea 3a3e ef19 bc3e 9ab9 8c3e
00000010: ff67 423e b3f5 3f3e d801 bd3e 24ad 803e
00000020: b86c 823e 4354 393e 111b a63e f995 733e
00000030: 64f7 933e dcc4 723e 65ee d13d 5f8c 8b3e
0.2438145 0.18253615 0.36738536 0.27485353 0.18984984 0.1874607 0.3691547 0.25132096
0.2547357 0.1809855 0.32442525 0.23787679 0.28899682 0.23707908 0.10250548 0.27255532

layer1.1.conv2.weight f4 [16, 16, 3, 3]
00000000: 75cd 1bbd 6354 e5bc fef3 f3bb b7cf 7c3d
00000010: 7f6c 88bd 6ebe 423d a123 8b3d a0b3 45bd
00000020: 5312 55bc d50c 90bd 3139 7b3d fd65 0d3d
00000030: f4af 96bd 4727 f8bc ab90 f7bc 679f cdbc
00000040: 8d2c 80bd f174 97bc 3b01 833c 2afc a43d
00000050: c724 a8bd 22ca 98bd 807a 533c 7da8 9dbd
00000060: 66cc 52bd 5046 30bd cad3 963d 5521 483d
00000070: 1f87 44bd ea84 45bd 575a 8abd 192a 9abd
00000080: ad4a 953d bab2 87bc 3aa0 1fbc 304a 94bd
00000090: 40a6 46bc 173d 69bd e909 f23c 3199 503d
000000a0: 94e2 31bd 36b4 16bc bf90 9c3d 8c52 78bd
000000b0: c0e1 13bd 4f9b 7a3d 4069 a93c eca9 17bd
000000c0: 1df6 3cbc 903f 6d3d f2cb 37bb 5d0a 323c
000000d0: 6410 01bd 2485 47bd b5a2 993d 162a 393d
000000e0: 7f05 4fbd 46b9 513c ace0 943c 2316 86bd
000000f0: 2fdd c0bc 1496 8cbd 07e1 a93c 859b 6e3c
00000100: 31c3 1bbd ac76 753c 0fd2 513c 0e8c 45bd
00000110: 0b66 fc3b 8e49 97bd 6727 91bc 0032 6b3d
00000120: 0b24 2f3d 2d4c 48bd 363c 333c d87d 6b3b
00000130: 3218 743b ac81 e9bb 4d4e 9bbd 42da 2e3d
00000140: b219 54bc 1aa9 5abc af7a 1b3c e87d 40bd
00000150: 9e0a b03c 86b0 833d 95c1 613d d628 a2bd
00000160: 78f0 2d3d 5545 d7bc 2a0e f4bc 849f 4f3c
00000170: ba48 a1ba 85a1 873c 5e4a 983d a570 1b3d
00000180: 2a7a 403b 37ef 3dbd eb30 5cbd a7d9 c1bc
00000190: 7c6a 2d3d 320f 823d 9d6a 053d ae41 0abd
000001a0: ce8c 1e3d d9bf 3b3d a50c 45bd b718 d63b
000001b0: f5ff 55bd 0aef 39bd 39be 8a3d 32f8 a53d
000001c0: ea3b a63d 42f5 2cbd ef15 e2bc 84d3 de3c
000001d0: 67da 0b3d 8dbc 883d 0854 a63d 8785 063d
000001e0: 2c2f 8dbd 22de cbbc 777e 73bd a1ca 983b
000001f0: cd7d 913b 7bd3 7c3d a91f d1bc c83a 95bc
00000200: c40a 80bd 4905 a1bd d860 a23d a5eb 113c
00000210: 08ee a33d d191 30bd 4781 b13c fa3c 6bbd
00000220: ad34 7e3d 54b9 9e3d c99a 333c 4408 743d
00000230: f357 3ebb 77f8 95bd eda9 d63c 99f2 28bd
00000240: 38ea 9dbd 764c 94bd d5c4 bcbc b7bd 973d
00000250: 4c7d 8c3d 9733 5ebc 5687 293d 7171 063d
00000260: 5ae3 39bd efcc b4bc 347d b4bc 8c95 663d
00000270: 6f28 1dbd 828c 093d 116b 023c 3f1d 25bd
00000280: 534c 94bc 53f2 92bd bdf7 5f3c 56ec 763d
00000290: 647f f2bc 8b1b c3bc 07e2 a7bc 062b 76bd
000002a0: ca27 24bd 515d 9cbd 4433 87bc 94d0 853d
000002b0: b814 11bb 3441 7b3d fd5d c93c 91e8 33bd
000002c0: 7a6d 803d 654c 903b 63d4 acbc e3ac 4e3d
000002d0: fec1 013c 3f09 8bbd f75f a93d 5702 26bd
000002e0: 45aa 92bd baf2 923d d343 2e3d 14e2 92bd
000002f0: 21e2 a53d f187 fabc 6693 05bd 8661 a03d
00000300: b31f 7cbc b203 9c3c 383a 46bc 39ad 4ebd
00000310: 5adc 13bc 66c8 eebc fe95 c13c 48f4 67bc
00000320: ed03 6ebd 5e90 803b b1d1 753d ea4b 143d
00000330: ba4e 243d ad20 123d ceb8 3cbd 2f90 553d
00000340: 3b59 553d ccfc 83bb a5cc a5bd 646a 053d
00000350: 4119 99bc e62e 1c3d 0dcf 173d ec55 713d
00000360: 8d07 1a3d a21d 3cbd fc89 a7bd 658f 7c3d
00000370: 108e 8e3d 503e 363d b950 01bd 14df 963c
00000380: e3d8 913d db1b 35bd 1aa1 b439 aa2c 9bbd
00000390: 7456 493d 56ec 053d 83b5 313d 9623 0abc
000003a0: 2071 c5ba dfc1 a6bd ed96 18bd 3d5d a73d
000003b0: 33df 193c 6627 54bd 55f2 8a3d 3b93 833d
000003c0: 36ba 4a3d 0df6 893c 4909 953d 4373 08bc
000003d0: 2b1c 33bd a70e a23b 4ca9 6dbd f39b d93c
000003e0: 6efe 823d 6323 92bb d503 83bd d6cd 5dbd
000003f0: bb1b 84bc b331 873d b564 01bb 62b4 76bd
-0.038037736 -0.02799434 -0.0074448576 0.06172153 -0.06661319 0.04754489 0.06793905 -0.048267007
-0.013004857 -0.070336975 0.06133384 0.03452109 -0.07357779 -0.030292166 -0.03022035 -0.025100423
-0.062584974 -0.01848838 0.015991798 0.08055909 -0.0821014 -0.07460429 0.012907624 -0.07698152
-0.05146446 -0.043035805 0.07364614 0.048859913 -0.047980424 -0.04822246 -0.06755512 -0.07527561
0.07289634 -0.016564716 -0.009742791 -0.07240713 -0.012124598 -0.056943025 0.029545741 0.050927345
-0.043428972 -0.009198239 0.076447956 -0.060625598 -0.036103964 0.06118327 0.02068007 -0.037027285
-0.011533287 0.057921946 -0.0028045145 0.010866729 -0.031509772 -0.048710957 0.07501737 0.045206152
-0.05054235 0.01280052 0.018173538 -0.06547191 -0.023542969 -0.06864563 0.020737184 0.014563446
-0.038027946 0.014981907 0.0128064295 -0.04822927 0.007702594 -0.07387076 -0.017718984 0.05742073
0.042758983 -0.048900772 0.010939648 0.0035933163 0.0037245867 -0.007126054 -0.07583294 0.042688616
-0.012945579 -0.013345981 0.009489699 -0.046995074 0.021489438 0.064301535 0.055116255 -0.07917945
0.042465657 -0.026278177 -0.02979191 0.012672309 -0.0012304999 0.01655651 0.074360594 0.037949223
0.002936969 -0.04637071 -0.05375759 -0.023663355 0.04233788 0.063505545 0.032572377 -0.033754043
0.0387085 0.045837257 -0.048107762 0.006533708 -0.052246053 -0.04539398 0.06774563 0.0810398
0.081168965 -0.042226084 -0.02759835 0.027200468 0.03414383 0.06676588 0.081214964 0.032842185
-0.06893763 -0.024886195 -0.05944678 0.004662827 0.0044400454 0.06172512 -0.025527792 -0.018216506
-0.062520534 -0.07862336 0.07928628 0.00890628 0.08004385 -0.04310781 0.02166809 -0.0574312
0.062061954 0.07750192 0.010962197 0.059578195 -0.002904412 -0.073227815 0.026204074 -0.041246984
-0.07710689 -0.07241146 -0.023043076 0.07409232 0.06859836 -0.013562105 0.041388832 0.03282303
-0.045382835 -0.022070376 -0.022032358 0.056294963 -0.03836864 0.033581264 0.007960097 -0.040311094
-0.0181028 -0.07175126 0.013669905 0.06028398 -0.02960176 -0.023816844 -0.02049352 -0.060099624
-0.04007701 -0.07634986 -0.016503938 0.06533924 -0.0022137593 0.06134148 0.02458095 -0.043922964
0.06270881 0.004403638 -0.021097368 0.050457846 0.0079197865 -0.06788873 0.08270257 -0.040529575
-0.071613826 0.07175203 0.04254515 -0.07172027 0.08099771 -0.0305824 -0.032611273 0.07831101
-0.015388417 0.01904473 -0.012098841 -0.050458167 -0.009024704 -0.029148292 0.023631092 -0.014157362
-0.058109213 0.00392346 0.06001443 0.03620521 0.040114142 0.035675693 -0.04607468 0.052139457
0.05208705 -0.0040279385 -0.080956735 0.032572165 -0.0186888 0.038130663 0.037062693 0.058919832
0.037604857 -0.045926698 -0.08180615 0.06166019 0.0696069 0.04449302 -0.031571124 0.018416919
0.07121446 -0.04421602 0.00034452305 -0.07576878 0.049154714 0.03269609 0.043385994 -0.008431336
-0.0015063621 -0.08142447 -0.03725331 0.08172081 0.009391594 -0.051795386 0.067845024 0.06424566
0.04949399 0.016840959 0.07277162 -0.008328262 -0.043728035 0.0049455944 -0.058022782 0.02656362
0.06396185 -0.004459785 -0.06397215 -0.05415138 -0.016126504 0.06601276 -0.0019743864 -0.06023062

layer1.1.conv2.bias f4 [16]
00000000: db98 2fbc bdc1 bfbb 4c42 963c 680b a3bd
00000010: 6d62 4c3a 9ebc 3ebd 4982 9cbc 103d 1dbd
00000020: 3e36 113d b31d d93b 4c08 013c 4e6f 5f3d
00000030: 5e37 86bc 462b 0cbd 9ebf 493d b5eb f1bc
-0.010717596 -0.005851953 0.01834216 -0.0796116 0.0007796649 -0.046566598 -0.019105094 -0.038388312
0.03545212 0.006625855 0.007875513 0.054549508 -0.016383823 -0.034220956 0.049255006 -0.02953134

layer1.1.batch2.weight f4 [16]
00000000: c5f6 7f3f 8e07 803f 6e03 803f 89e2 7f3f
00000010: 8108 803f 0f09 803f 3f0f 803f 8dd1 7f3f
00000020: 8009 803f 6dcd 7f3f adf3 7f3f 21f8 7f3f
00000030: 44f7 7f3f 64da 7f3f 1af8 7f3f 2b07 803f
0.99985915 1.0002306 1.0001047 0.9995504 1.0002595 1.0002764 1.0004653 0.99929124
1.0002899 0.9992283 0.99981195 0.9998799 0.9998667 0.9994261 0.9998795 1.0002187

layer1.1.batch2.bias f4 [16]
00000000: d078 da39 bb1e 23b9 69d9 68b9 6413 0b38
00000010: 1a4e 5d39 5717 9339 70a8 afb9 c2b8 44ba
00000020: 1381 1e39 3641 23b9 ce0a 35b8 7e7b 2838
00000030: 37c1 c0b9 43e4 d0b8 b93d e639 c079 20b9
0.00041670213 -0.0001555634 -0.00022206236 3.315824e-05 0.00021105297 0.00028055414 -0.00033504097 -0.00075043377
0.00015116138 -0.00015569184 -4.3163825e-05 4.0169332e-05 -0.0003676505 -9.96073e-05 0.00043915006 -0.00015304144

layer1.1.batch2.running_mean f4 [16]
00000000: 8a66 16be e975 82bc 342e a2bd deb7 8fbe
00000010: 8c55 b8bd a1d2 11be 3bb8 45bd 1b88 bebc
00000020: a9c6 b93e 0735 d0be 8c57 203d f03a af3e
00000030: c29d 6dbd f3b2 a1be 6589 773e c9a6 983e
-0.14687553 -0.015925365 -0.07918969 -0.28069967 -0.09000692 -0.14240505 -0.0482714 -0.02325826
0.36284378 -0.40665457 0.03914599 0.34224653 -0.058011778 -0.3158184 0.24173506 0.29814747

layer1.1.batch2.running_var f4 [16]
00000000: 3e7c a83d 1cc9 ba3d f97d 753d 780c 923d
00000010: cb3f e33d 6672 f93d c648 f73d 4a21 3d3e
00000020: 8fd3 753e c824 7a3e ce4c 163e 6f1a f53d
00000030: 9e68 b43d 237c bd3d d297 be3d dc8d 933e
0.08226822 0.0912039 0.05993459 0.071312845 0.11096152 0.12180023 0.12074427 0.1846973
0.24006484 0.24428093 0.14677736 0.119679324 0.08809017 0.09252193 0.09306301 0.28819168

layer2.0.conv1.weight f4 [32, 32, 3, 3]
00000000: 2aef 37bd a9fc 013c 62bc debc 43cf 62bd
00000010: de96 16bd cf19 ad3c 030f aebc 0797 863a
00000020: f756 2dbd d763 2cbc 8a06 18bd 6192 2e3d
00000030: 5efb 703d 0cb6 2b3d 4eb7 413d 7a16 553d
00000040: c4c7 ff3c 24ac 5ebc cebf 42bd 55ab 3cbc
00000050: 8a69 333d 78a3 8bbc 88fe 963c baeb 07bd
00000060: 5068 633d 4fbc 24bd 240d c3ba bf5d 93bb
00000070: 5318 e03b 8242 b0bc 9877 c2bc e3c3 25bc
00000080: dae3 65bd 7313 3a3d beba ae3c 8fa7 3a3d
00000090: ba23 1d3d fefd 643b 14c1 e2bc 9e06 04bd
000000a0: 6d3c 67bd e218 393d 5ee8 62bd 0e98 d2bc
000000b0: f300 2f3b c426 6abd d755 f73a eede 553b
000000c0: 5126 31bc b649 04bd c721 56bd 98fe c33c
000000d0: 0db2 aa3c c841 1c3d 3678 203d c91b a13c
000000e0: 6a28 ffbc 1882 55bd e256 fa3c 1f5b 6cbd
000000f0: 5275 d2bb 9639 47bd 16bc ebbc 8aae c83b
00000100: 6502 49bd 6dd8 373d 9455 11bd 050d 7d3c
00000110: 6544 483d a5bb 10bd f233 fabc d422 17bc
00000120: e9eb 203d 6161 e4bc 782d 7dbc a965 99bb
00000130: f1b3 1abd 13a6 2f3d fa77 bf3a 5fe7 063c
00000140: 63a4 a4bc 133b 363d 8146 d1bc 031c c8bc
00000150: 889c 963a 272f 62bd f5e8 f3bc e42d 35bd
00000160: b82a 16bd 49a7 30bd 7b74 a3bc 0fab 7c3c
00000170: b33c 323d f78e 403d e005 3d3c a294 17bc
00000180: a3f2 f53c e261 43bd 91c4 f4bc 5163 41bd
00000190: 099a 5e3b 0b0c 573d 1bf8 ebbc 45d0 093d
000001a0: 6345 ec3c 1e76 4fbd 25bb bcbc c6bb 6cbd
000001b0: 4284 ba3b e8c4 d83c 4ebd 093c b43e 1b3d
000001c0: 7316 243d 5b17 093c d753 b23c aa2a 093d
000001d0: 4a99 4c3d 67dd 593d 76fd 08bd 66f0 eabc
000001e0: 4241 f13c 7074 093c 560d ce3c 060f 44bd
000001f0: 61d6 363d d699 d63c 0fda 79bb 02e2 7abc
00000200: 79ad 6bbd f101 1d3d 3a98 363c 0303 a3bc
00000210: 9cfb 3dbd acac c7bb a9be dcbc 420f 4b3d
00000220: 9417 aa3c 8de8 c5bc af1c 293d 6e28 c9bc
00000230: 8621 2bbc 2ca5 003d 89a7 933c 607a 97bb
00000240: d78a 50bd b6c2 aebc 5db2 343d 230d fcbc
00000250: b3fc be3b 9a8a 823c c3b8 ae3c 6cab cebc
00000260: af19 21bd a14b 123c 6554 53bc 5406 95bb
00000270: 23b6 543d 64b0 07bd 3b1d 11bd 9974 6d3d
00000280: a90b e13b ad02 26bd 6d24 103d db5f 543d
00000290: 1a97 24bd d9c0 d2bc 5971 313c 410e a43c
000002a0: 8ace 0dbc 523b 30bd 41ac 023d 7000 583d
000002b0: fe8a 483d 35a2 0b3c 6ee4 1d3d 6431 30bd
000002c0: d488 44bc 93bb 6e3d 04c0 2fbd 9b3c 31bd
000002d0: e9b0 dd3c f100 143d 6031 dfbb 85e0 c63c
000002e0: 60a3 2ebc fb64 03bd a6d7 b43c b609 3ebd
000002f0: 7732 6d3d 7f0f 103d 4444 22bd b11c 643d
00000300: 38e4 2d3d 1ec0 1b3d 1393 9c3c e006 0e3d
00000310: 111b 643b 194e 283d 6a25 133d 2f64 2c3c
00000320: 900e 0fbd 0162 0abc 46fd 9d3c 6fac 47bd
00000330: 215d 15bd 0bb6 9dbc b624 c73c d7b3 fe3c
00000340: 45a4 33bd b9ba 54bd f060 683c 1565 a3bc
00000350: dd6e 4abd dba9 223c c64e cd3c 23af cebc
00000360: 6b47 c93a 8eb8 22bc 50a3 efbc ad44 3fbd
00000370: c6dd 003d ca7d 673d c6da 62bd b369 18bd
00000380: 25a7 93bc 683e 30bd fe13 533d ce6a d1bc
00000390: 6698 453d 72e5 53bd 53e5 2b3d 2de0 21bd
000003a0: 3673 b43b 57a0 57bd eb74 2dbd b86e 15bd
000003b0: 81fb cfbc 2b68 603d fcac 0fbc 7d5a d53c
000003c0: d156 343d 528b 2a3d 7217 bd3c dd6b 2a3d
000003d0: da14 2dba 2bc6 103d dabf d43a d50d ebbc
000003e0: 743d 513d a4b8 d13c 74d4 0abd 146e 0c3d
000003f0: b38f c0bc 5944 9a3c 0215 053d af53 803c
-0.04490582 0.007933774 -0.027189437 -0.05537344 -0.036764972 0.02113047 -0.021247393 0.0010268398
-0.042319264 -0.010521851 -0.03711561 0.042620067 0.058833472 0.04192166 0.047293954 0.05202339
0.031223185 -0.013590846 -0.0475462 -0.011515458 0.04380182 -0.017045721 0.018431917 -0.03318379
0.055519402 -0.040218648 -0.0014881236 -0.0044972594 0.006838837 -0.021516088 -0.023738667 -0.010117504
-0.0561255 0.045428704 0.02132928 0.045569953 0.03836415 0.003494143 -0.027679957 -0.032232873
-0.05645411 0.045189746 -0.055397384 -0.025707271 0.0026703447 -0.057165876 0.0018870187 0.0032634097
-0.010812358 -0.03229686 -0.052278306 0.02392511 0.020836854 0.03814867 0.039177142 0.01966657
-0.0311472 -0.05212602 0.030559007 -0.057704087 -0.006422677 -0.048638903 -0.02877621 0.0061243223
-0.04907455 0.044884134 -0.035482004 0.015444999 0.04889335 -0.0353352 -0.030542348 -0.009224612
0.03928748 -0.027878465 -0.015452735 -0.0046813083 -0.03776926 0.04288299 0.0014607899 0.008233874
-0.020097917 0.04448993 -0.025546314 -0.02442742 0.0011490742 -0.05522075 -0.029774169 -0.044233218
-0.036661834 -0.043128286 -0.019953003 0.015421643 0.04351492 0.047011342 0.011537045 -0.009251745
0.030022925 -0.04770077 -0.029878886 -0.047213856 0.0033966324 0.05250172 -0.02880483 0.033645887
0.02884168 -0.050649755 -0.023038456 -0.057796262 0.005692036 0.02646108 0.00840695 0.037901595
0.04006047 0.008367385 0.021768494 0.033487953 0.049950875 0.05318966 -0.033444844 -0.028679084
0.029450063 0.008389577 0.025152843 -0.04786589 0.04463804 0.026196402 -0.0038124358 -0.0153126735
-0.057538483 0.03833193 0.011144692 -0.019898897 -0.04638253 -0.006093582 -0.026946383 0.049575098
0.020763196 -0.02415874 0.04128712 -0.024555411 -0.010445004 0.03140752 0.018024223 -0.0046227425
-0.050913658 -0.02133308 0.044115413 -0.030767983 0.005828464 0.015935231 0.021328336 -0.025228225
-0.039331134 0.008929164 -0.012898539 -0.0045478735 0.05193151 -0.033127204 -0.035428267 0.057972524
0.006867845 -0.040529896 0.03519099 0.051849227 -0.040183164 -0.025726723 0.010830247 0.020026328
-0.0086552 -0.043025322 0.031902555 0.052734792 0.04896068 0.00852256 0.038547926 -0.043015853
-0.011995513 0.058284353 -0.04290773 -0.04327069 0.027061896 0.03613371 -0.006811306 0.024276981
-0.010659069 -0.032078724 0.022075485 -0.04639598 0.057909455 0.03517103 -0.039615884 0.055691425
0.042453974 0.038025014 0.0191131 0.034674525 0.0034806172 0.041090105 0.035924353 0.0105219325
-0.034925997 -0.0084462175 0.01928581 -0.04874843 -0.036465768 -0.019251844 0.024309497 0.031091614
-0.04385783 -0.051935885 0.014183268 -0.01994566 -0.049422134 0.009928192 0.025061976 -0.025229996
0.0015356367 -0.009931697 -0.029252678 -0.046696354 0.0314615 0.056516446 -0.05538442 -0.037210178
-0.018024037 -0.043028265 0.051532738 -0.025563624 0.04824104 -0.051732488 0.041966747 -0.03952043
0.0055068983 -0.052643146 -0.04234783 -0.036482543 -0.025388481 0.054786842 -0.00876927 0.026044125
0.044028107 0.041636772 0.023082469 0.041606773 -0.00066025334 0.035345238 0.0016231493 -0.028693119
0.051083997 0.025600739 -0.033894017 0.034284666 -0.023506021 0.018831419 0.032490738 0.015664903

layer2.0.conv1.bias f4 [32]
00000000: ebd3 9abc 0aee 0a3d d246 e63c e312 dfbc
00000010: 6ea0 0f3c 67b3 333d e46b 143d 1b3d 4d3d
00000020: 9e60 3abd e307 8d3c 587e c13c 1275 42bd
00000030: c1c5 393d bf0a 40bd 94f3 ea3c c9ea 423d
00000040: a841 193c 87fd 6b3d b157 8dbc 0754 49bd
00000050: 05be 59bd bc6c eb3c a5a9 45bd 0cf6 3d3d
00000060: 92b1 51bd a20a b83c db3b e23c 8976 ff3b
00000070: 248e 2c3d ffa2 f8bc aa0d bcbc 5401 5abd
-0.018899878 0.033918418 0.028109942 -0.027230686 0.008766277 0.043872263 0.036235705 0.050107103
-0.045502298 0.017215675 0.023619816 -0.04747493 0.04535461 -0.04688525 0.0286806 0.04758719
0.009354033 0.05761483 -0.017253729 -0.0491524 -0.053159732 0.028738372 -0.04825749 0.046377227
-0.051194735 0.022466008 0.027616432 0.007796113 0.042127743 -0.03035116 -0.022955734 -0.053223923

layer2.0.batch1.weight f4 [32]
00000000: ff12 803f 91fb 7f3f 8af7 7f3f caea 7f3f
00000010: eaea 7f3f 01fc 7f3f fa09 803f bc05 803f
00000020: ffe9 7f3f 4a00 803f 30ef 7f3f 6de4 7f3f
00000030: a505 803f 0af0 7f3f 8c06 803f 5309 803f
00000040: 76d2 7f3f 03fa 7f3f 2829 803f 77e6 7f3f
00000050: 8f0f 803f 43f7 7f3f c113 803f 8705 803f
00000060: 9edb 7f3f 50fb 7f3f 81f3 7f3f 51ec 7f3f
00000070: 57e2 7f3f e404 803f 3def 7f3f 5ef7 7f3f
1.0005797 0.99993235 0.9998709 0.99967635 0.99967825 0.999939 1.0003045 1.000175
0.99966425 1.0000088 0.99974346 0.99957925 1.0001723 0.99975646 1.0001998 1.0002846
0.9993051 0.9999086 1.001256 0.99961036 1.0004748 0.99986666 1.0006028 1.0001687
0.99944484 0.9999285 0.9998093 0.99969965 0.9995474 1.0001493 0.99974424 0.9998683
