new_my_model50.pth (torch, 928587 bytes, 92 tensors)

conv1.weight f4 [16, 3, 7, 7]
00000000: 88b2 b33c 3876 ed3c 0ee9 623d 9107 f8bc
00000010: 3829 073d 6a36 dbbd a80d b03c 599a 81bc
00000020: 2a8b 3f3d 8db2 4dbd 990d ae3c 98b8 acbd
00000030: a79d 863c 0d6a 94bd aab2 8abc b92f 4e3d
00000040: a889 d13c b763 b2bd 0147 63bd 2a1a e03c
00000050: 09ab f2bd bf5a f1bc ca9a ae3d e212 ac3c
00000060: 6cd4 843d 74da 993c 150d 86bd a06a 8ebd
00000070: 4167 a63c 28a5 2ebd c8c6 dc3a 1945 8bbd
00000080: 9c15 8c3d 1d2a e03c f176 7abd 5715 30bb
00000090: 025f 23ba eed6 b23c 4a7f 4c3d 6b6d 2cbd
000000a0: 9666 8bbd c6a3 93bd a692 343d 2b6d ba3d
000000b0: 8a1c 4abb 3afb 453d 9fbc d53a c67c 603d
000000c0: c930 2d3c 765d 503d 6659 bebc e1f4 7cbd
000000d0: d665 50bd 11b7 1abd fb6e d63d 51f0 87bc
000000e0: 6c3b 24bd c898 483c bd3b 853d 838b 473d
000000f0: d922 433d ccf1 553d af73 28bd 8681 a6bd
00000100: daa5 91bd f470 79bc 9213 313c 2084 673d
00000110: da90 22bd e80c 043d d00c 583d ed79 c1bd
00000120: e6ea f93c d135 4fbd bd8c 463d ea22 cb3b
00000130: 24d6 af3c 298e 313d be2b 03bd 3bd0 d3bd
00000140: a001 663d 7087 33bb 863b 23bd 7c46 cd3d
00000150: 2efd 543d 9d42 10bd e01f 41bd fb12 f73b
00000160: 0576 223d 4220 65bd 2321 40bd 3a19 253d
00000170: c023 22bd 4498 f1bc ad28 67bd 1e83 96bd
00000180: 4cd2 513d 3df4 8c3d a214 043d f528 19bd
00000190: 077a b6bd 4366 173d 16f2 79bd fea0 433c
000001a0: a204 ab3d 7ee8 b0bd 2d51 963d 63e8 8fbd
000001b0: 8add f83c eaf5 dabb 54a1 c63d 68f6 413b
000001c0: ea17 8dbd ebc8 5b3d 9b1a 86bc 64f6 d1bc
000001d0: 79f5 10bd 30ea b8bc a71e 823d 6a6d cc3c
000001e0: 8dff 53bd c434 83bd 5bfb 663c 0173 503d
000001f0: d515 ae3d 1b71 0e3d 0451 803d ff7b 6bbc
00000200: 8ddc 9f3c d3e1 d6bc 64bf b03b 2495 5dbd
00000210: 16f7 0b3d f64e 60bd 68b6 4abd 77b2 97bd
00000220: 6b4a dfbc 9f8a abbc 8f8b 8f3c ac2c d73c
00000230: fc84 3abd 3339 003d 3210 d5bc 4c2f 203d
00000240: 14f8 73bd f3f5 c83d 7082 053d 282e 683d
00000250: 80ff 2dbd 5f88 703d a9d6 a0bc e1ae 6bbb
00000260: b635 173c 0c52 e03d e420 3fbd 5e87 e83c
00000270: bffc 053d c72d 52bc e047 64bd 92f0 803c
00000280: ca07 52bd c341 25bd c59a a63d 0faa 86bd
00000290: 5785 bd3b c8d7 3dbd d72e 32bd 495f be3c
000002a0: 3e16 6e3d a172 55bd ed77 15bd 938f 3c3c
000002b0: 28ff 943c c6cd ef3c 6a83 943d d8c2 67bb
000002c0: 33ac 7ebd 93b3 4ebd a1ea adbd 3315 f1b8
000002d0: 0b80 b83d 6213 fd3c 3041 5cbc dc6c 97b9
000002e0: 618d 6a3d 7c1f 10bd d0a6 51bb dcd7 04bd
000002f0: f73f 0e3c 2523 4b3c 6099 d6bc a0b8 b53b
00000300: 94ec acbd 6aa5 093d fa2f adbc 9a0f 9ebd
00000310: ecf7 c23d a935 8bbc 5d52 f2bc cd58 7cbc
00000320: 1111 ff3a 55bf 993d f3da 94bd d765 45bd
00000330: 724e 3cbd 8a60 05bd 1f21 bcbd a3a5 f73b
00000340: 303c a43c 5c44 4fbd 2bc1 b0bc bcc1 86bd
00000350: 52b5 0a3c 9d03 a3bd 7dd2 9cbd 4d52 5abd
00000360: 6bcf 03bd 0396 39bc 38bb 59bd 0324 e83c
00000370: 1d13 933c 93ae f8bc 090e 47bd df63 513c
00000380: a299 113d 0933 c8bd b5fa bcbd 0eb2 10bc
00000390: 5cd6 67bc 7d07 af39 f973 7a3d 33c8 973c
000003a0: 2af2 013d 348d 80bd b78c a4bd 7a9c a13d
000003b0: 4631 8dbd 7232 76bd 9c93 883b 5f1b 45bb
000003c0: 0f25 d0bc 7e2d c73c e991 0e3d a7dd 0f3d
000003d0: 56d7 5d3d 0c8e ccbb 31fa 2d3d 1d8a 72bc
000003e0: cba7 84bd 4c86 2dbd 6967 b4bc 16db a43d
000003f0: 3a65 6d3d c106 b939 475b e43c 094c 2cbd
0.021935716 0.028987035 0.05539804 -0.030277045 0.032998294 -0.10703738 0.021490887 -0.015820669
0.046763577 -0.050219107 0.021246718 -0.08433646 0.016432596 -0.0724679 -0.016930897 0.05033848
0.025578335 -0.08710425 -0.055487636 0.027356226 -0.118490286 -0.029462216 0.085256174 0.021005098
0.06485829 0.018780924 -0.06545464 -0.06953931 0.020312907 -0.042637974 0.0016843909 -0.06800289
0.06840059 0.027363831 -0.061148588 -0.0026868188 -0.0006232114 0.021831002 0.04992608 -0.042096537
-0.06806676 -0.07208972 0.044085167 0.091028534 -0.0030839765 0.04833529 0.0016306824 0.054806493
0.010570713 0.05087038 -0.023235988 -0.061756972 -0.05087837 -0.037772242 0.104703866 -0.016594084
-0.04009573 0.012243457 0.06505535 0.048717033 0.047640655 0.05223255 -0.04112595 -0.081301734
-0.07111712 -0.015224684 0.010807889 0.05652249 -0.039688922 0.03223887 0.052746594 -0.094470836
0.030507516 -0.050588433 0.048474062 0.0061992304 0.021464415 0.043348465 -0.032024138 -0.10342451
0.056153893 -0.002739396 -0.039851688 0.100232095 0.051999263 -0.035219777 -0.04714954 0.0075401044
0.039663333 -0.055938967 -0.0469066 0.04030726 -0.039584875 -0.029491551 -0.056435276 -0.07349227
0.051225945 0.06882522 0.03224624 -0.037392575 -0.089099936 0.03696276 -0.061021887 0.011940239
0.08350493 -0.08638094 0.07339702 -0.07026746 0.030379076 -0.0066821473 0.0969874 0.0029596332
-0.06889327 0.053658407 -0.016370108 -0.025630184 -0.03539035 -0.022572607 0.06353503 0.024954516
-0.051757384 -0.064065486 0.014098014 0.050890926 0.08500258 0.034775835 0.062654525 -0.014372825
0.019514346 -0.026230728 0.0053939093 -0.05409731 0.034171186 -0.054762803 -0.049490362 -0.07407086
-0.027257165 -0.020940123 0.017522601 0.026266418 -0.04553698 0.03130455 -0.0260087 0.039107606
-0.059562758 0.09812536 0.032595098 0.056684643 -0.042479992 0.058723804 -0.019633608 -0.003596239
0.009229114 0.10953149 -0.046662226 0.02838486 0.03271174 -0.012828297 -0.055732608 0.015739713
-0.05127696 -0.04034592 0.08134989 -0.06575405 0.0057837176 -0.046348363 -0.0435017 0.023238795
0.05812668 -0.05211127 -0.036491323 0.01150884 0.018188074 0.029272925 0.07251628 -0.0035363939
-0.06217594 -0.050464224 -0.084920175 -0.00011495724 0.09008797 0.030893032 -0.013443276 -0.0002888207
0.057263736 -0.035186276 -0.0031990297 -0.032432422 0.008682243 0.012398516 -0.026196182 0.0055456907
-0.08443561 0.033605017 -0.021141041 -0.077178195 0.095199436 -0.01699336 -0.02958029 -0.015402031
0.0019460042 0.07507197 -0.07268324 -0.048192825 -0.04597325 -0.03256277 -0.09186005 0.007557587
0.02004823 -0.050602302 -0.021576485 -0.06579921 0.008466082 -0.079596736 -0.07657335 -0.053301144
-0.03218023 -0.0113272695 -0.05315706 0.028337484 0.01795345 -0.030356681 -0.04859737 0.012780159
0.035546906 -0.09775359 -0.09227506 -0.008831514 -0.014150228 0.0003338418 0.061145756 0.01852808
0.031725086 -0.06276932 -0.08034652 0.07891174 -0.06894164 -0.060106702 0.004167987 -0.003007613
-0.025408296 0.024313685 0.03480712 0.035123494 0.05416044 -0.0062425192 0.04247493 -0.014803437
-0.064773165 -0.042364404 -0.022021966 0.080496 0.057957865 0.00035290982 0.027875556 -0.0420647

conv1.bias f4 [16]
00000000: 32af f4bc e8ed 70bd 4822 943d c165 533b
00000010: abe2 f7bb e972 09bd 52de 053d 13e6 38bc
00000020: ea50 93bd 3835 a13c efd1 41bd 2fcc 20bd
00000030: 94e2 343d 7f0c 3fbd e70e 2dbd af9e e63c
-0.029868696 -0.058820635 0.07233101 0.0032256695 -0.0075648627 -0.033556852 0.032682724 -0.011285323
-0.071931675 0.019678697 -0.04731935 -0.039257225 0.044161394 -0.046642777 -0.04225054 0.028151838

bn1.weight f4 [16]
00000000: d746 783f 79e0 7f3f 4772 733f ad13 7c3f
00000010: 4347 7e3f 67df 7d3f af71 813f ea0b 813f
00000020: 3826 783f ac95 813f 4639 7b3f 4042 7b3f
00000030: 8296 713f eebc 7a3f b89f 813f 5451 713f
0.96983093 0.99951893 0.9509625 0.9846752 0.99327487 0.9916901 1.0112818 1.0081761
0.9693332 1.0123801 0.9813427 0.98147964 0.9437028 0.97944534 1.0126867 0.9426472

bn1.bias f4 [16]
00000000: ce11 c3bc ae49 60bd f68d b23c 1f1a 04bd
00000010: 3cc7 d83d e138 22bb f1c3 293c 4527 5dbc
00000020: 8e37 243d 21c4 08bd b086 3e3d e7a0 393d
00000030: 6781 4bbc 3e7d 133d b4e9 423e 09da a53b
-0.0238122 -0.054757766 0.021796208 -0.032251474 0.10584876 -0.002475314 0.0103616575 -0.013498132
0.040092044 -0.033390168 0.046515167 0.045319464 -0.012420989 0.036008112 0.19034463 0.005061392

bn1.running_mean f4 [16]
00000000: 0f32 2dbd 2cf7 a0bd cd7a 7b3d 1d34 55bd
00000010: 29cd 95bb 6106 8cbc 6c9d 903c ba35 74bc
00000020: bc6d 64bd 8fcb 243c 0f0a bbbc 479b b3bc
00000030: ac86 8c3d 23fd 2abd 5a38 1bbd 7423 603d
-0.042284068 -0.07859644 0.06139641 -0.052051652 -0.004571576 -0.017092885 0.01765319 -0.014905388
-0.055768713 0.010058298 -0.022831945 -0.021924628 0.06861624 -0.041745316 -0.037895538 0.05472131

bn1.running_var f4 [16]
00000000: 7c60 023e dbbe f43e f4e9 a23e 6481 583f
00000010: 4fe1 353e 3da1 ab3e 7719 c63e 4883 1b3e
00000020: 7db0 843e 4535 183e c0a3 b83e 4690 8e3e
00000030: 1038 ca3e 23c6 7d3d 7dba 1a3f 8592 d43e
0.12732118 0.4780186 0.31819117 0.84572434 0.1776173 0.33521453 0.38691303 0.15186799
0.259159 0.1486407 0.3606243 0.27844447 0.39495897 0.061956536 0.6044081 0.41518036

layer1.0.conv1.weight f4 [16, 16, 3, 3]
00000000: 159f c1bd bff7 213d 22ac efbd 8aab d1bc
00000010: d302 a7bd f0b4 273d 9a0d 55bd 4f3b 3cbd
00000020: 30b1 c6bd 9c13 c33c bbe3 08ba 8ee1 63bd
00000030: c0f1 143d b255 5e3c 2dd8 893d 4aac 163d
00000040: aabf 80bd 39ff c63d a12a 4bbc 2506 24bd
00000050: 30b4 67bd 8559 1bbc dffb 043d 33b1 5bbd
00000060: ed7f d6bc 9c6e 29bd 37c1 5dbd bb42 283d
00000070: 7541 b7bc e5eb a1bd c0bc d03b 956f 63bd
00000080: f053 77bd 64fa fabb 6d57 e63c b2fb 70bd
00000090: f6e9 ce3c 9b3e 62bd aff3 6cbd b5da 26bd
000000a0: 07ac b63d 9dee edbc 1742 263d 65c9 3dbb
000000b0: 5ac4 863d 8287 fcbb 7922 243d cdd4 69bc
000000c0: 9843 273d a942 c0bd 4ae2 453d 7935 01be
000000d0: 4962 7eb9 9d82 433d 1ffc a13d 3ffe 873d
000000e0: 5607 5d3d 0012 3dbd 12dc 873d 1631 a13b
000000f0: 2c19 cf3b ef50 39bc ca94 cc3d 24af eebc
00000100: 5a09 f83c 1691 9f3d 8324 adbd 3ac9 4f3d
00000110: 2020 013d 827b 773c 659a e13c 6519 0dbd
00000120: 5a69 11bd accb 30bc 4506 8e3d 9c94 70bd
00000130: 390d 0dbc 0d86 50bd ad6a 993d 87c9 cebc
00000140: 6716 34bd f5d8 793d 0981 313d 217e a2bb
00000150: 99e6 883c 4d60 803c 83a0 26bd 8edb c43d
00000160: 3693 063d dbcf f7bb 19e8 adbd af67 d0bb
00000170: 868f f83c f0a5 f33c b5d4 183c 189a 603d
00000180: 790a a23a 8bfd 26bd c039 a0bd 7083 04bd
00000190: 4eea aebc e930 833d 1ab6 85bd b12c 08bd
000001a0: 0b71 85bc 55e5 1cbd 5e44 a9bd ecca 663d
000001b0: b680 0e3c 0e3e 8ebd 9d56 61bc e0a6 683d
000001c0: a218 bb3c 4296 d1bb 8fa0 783c 5c55 7fbd
000001d0: dbb8 77bd c152 543d e095 2fbd 0181 cebd
000001e0: 48ee 593b 7fc9 babc 57b7 c6ba 8816 3c3d
000001f0: 144f 633d 1678 6ebd 7cf8 46bc 08a2 17bd
00000200: 59af 89b9 a0d5 70bd 4de1 863d 999d 51bb
00000210: def1 bebb e6bf a63d febf 0a3d b676 823d
00000220: 16c2 34bb 0cce 983d a1ee b7bc 2c7e 4ebc
00000230: 9867 25bd c604 873d 7683 3dbc cb92 4c3d
00000240: c6a0 073a e692 c83c 03fe c9b9 2467 5c3d
00000250: f265 933c 4f2d 6cbc 3ab4 c93c 8912 85bd
00000260: b6a5 28bd 0606 8bbd 5a78 f0bb 5561 223d
00000270: 5782 243d 339a 7ebd 2922 a2bc 7720 95bd
00000280: cf75 20bd 8ad7 f13c a184 afbc 5cb1 6dbd
00000290: 8478 2e3d 8cac f2bc ad72 463d 0527 22bd
000002a0: 862d 1cbd 247c 80bd cf3e f7bc 6344 5ebd
000002b0: bf4c 043d 9e31 653d 8700 8dbd 5c00 a73d
000002c0: f9d9 b83d 85ee 703d 172b 40bd e73b 4cbd
000002d0: cd04 e3bc a57e 5ebd 0000 f33d bdb0 533d
000002e0: 7364 05bd 0579 febc 34b2 11bd 9b93 0abc
000002f0: 8b84 a43d faeb baba 552d 4d3d 28e3 603d
00000300: 12ef 693b 6bc3 73bc c259 35bc 43d4 0e3c
00000310: c39f b0bd 09ff 513d 9e07 423c a645 c63d
00000320: a8be ecbc d25f 66bd acc2 d83d 2c6b c63d
00000330: 6987 8d3c d6e3 26bd 173e 4bbd 587f 6e3c
00000340: 62b6 633d 68a8 943d bfe4 82bd 6f4b 293d
00000350: 2fe9 a73d 0a9b 60bc f34e a63d db1d 6cbd
00000360: 8510 493d 6950 9b3b 19dc 44bb 82cc cebc
00000370: 5605 b23b ae34 6dbd 1782 133d df24 e0bc
00000380: 7590 2bbd 80b6 293d bd30 7c3d 15c2 da3c
00000390: e3c0 b43c 3bcd 45bd a19e 92bc f488 373d
000003a0: bb7d 87bc 8474 a7bd 5cca 573d 685d 8d3d
000003b0: c7ab 8dbd f9db 77bd d405 b33d 29bc 253d
000003c0: 0325 883d 48e4 95bd aba6 0f3c 12bb 95bd
000003d0: 1ff5 a73d 424f c5bc dba0 273b 08ed 593d
000003e0: e2f1 3bbd fd45 8c3d 4aec 5f3d 3e77 cbbb
000003f0: 2b80 fabb 0426 313d 956c 31bd 05f1 e43b
-0.094541706 0.03954291 -0.117027536 -0.025594492 -0.081548356 0.04094404 -0.052014925 -0.045955
-0.097017646 0.023813061 -0.0005221923 -0.055635028 0.036363363 0.013570236 0.067306854 0.0367854
-0.06286557 0.097166486 -0.0124003 -0.040044922 -0.056568325 -0.009481792 0.032466765 -0.053635787
-0.026184047 -0.04136525 -0.054139342 0.041079264 -0.02237008 -0.079063214 0.006370157 -0.055526335
-0.060382783 -0.0076592434 0.02811786 -0.058833785 0.025258046 -0.055235486 -0.057849582 -0.04073592
0.0891953 -0.029044444 0.040590372 -0.0028959152 0.0658042 -0.0077065835 0.04007194 -0.014271927
0.040835947 -0.093877144 0.04831151 -0.12618054 -0.00024259942 0.047731984 0.079094164 0.066402905
0.053962074 -0.046159744 0.06633772 0.0049191816 0.0063201394 -0.0113108 0.09989317 -0.029136248
0.030277897 0.07791345 -0.0845423 0.050729014 0.031524777 0.01510513 0.027539441 -0.034448046
-0.03550086 -0.010790747 0.069347896 -0.058735475 -0.00860911 -0.05090909 0.0749105 -0.02524258
-0.043966677 0.060997922 0.04333595 -0.0049588834 0.01671152 0.01567092 -0.04068042 0.09612189
0.032855235 -0.00756262 -0.08491535 -0.0063600163 0.030341875 0.029742211 0.009328057 0.054834455
0.001236274 -0.04076914 -0.07823515 -0.03235191 -0.02135196 0.06405813 -0.06528874 -0.033245746
-0.016289255 -0.038304646 -0.08264993 0.056345865 0.008697679 -0.0694543 -0.01375356 0.05679977
0.022838894 -0.006396086 0.015174999 -0.062337264 -0.060479026 0.051836733 -0.04286754 -0.10083199
0.00332536 -0.022801159 -0.0015160841 0.045919925 0.055495337 -0.05821999 -0.012144204 -0.03701976
-0.0002626132 -0.05879748 0.065859415 -0.0031984805 -0.0058271727 0.081420705 0.033874504 0.063702986
-0.0027581505 0.07461175 -0.022452654 -0.012603324 -0.040381998 0.06592707 -0.011566987 0.04994468
0.00051737984 0.02448411 -0.0003852696 0.0538093 0.017992947 -0.014415099 0.024622072 -0.06497676
-0.04117366 -0.06788258 -0.007338566 0.039643604 0.040163364 -0.062158775 -0.01979168 -0.07281583
-0.03917485 0.029521722 -0.021425547 -0.05803047 0.0425954 -0.029623292 0.048449207 -0.039587993
-0.038129352 -0.06273678 -0.030181317 -0.054264437 0.032299753 0.05595552 -0.06884866 0.081543654
0.0902595 0.05882122 -0.046916094 -0.049861815 -0.02771225 -0.054319996 0.118652344 0.051682223
-0.0325665 -0.031063566 -0.03557034 -0.008458043 0.08033093 -0.0014261 0.05009206 0.054904133
0.0035695476 -0.014878134 -0.011068763 0.008717599 -0.08624222 0.05126861 0.011842636 0.09681253
-0.028899506 -0.056243725 0.10584006 0.0968841 0.017276483 -0.040744625 -0.04961976 0.014556728
0.055593856 0.072586834 -0.06391286 0.041331705 0.08198773 -0.013708839 0.08120527 -0.05764566
0.04908802 0.0047398102 -0.0030038415 -0.025244001 0.005432765 -0.057911567 0.036012735 -0.027361332
-0.04188581 0.04143381 0.061569918 0.026703874 0.022064632 -0.048291426 -0.017897906 0.044808343
-0.016539445 -0.081765205 0.05268322 0.069025815 -0.069175296 -0.060512517 0.08741346 0.040462647
0.066476844 -0.07318932 0.008767764 -0.073110715 0.0820105 -0.024085645 0.0025578055 0.053204566
-0.045884974 0.06849287 0.054668702 -0.006209283 -0.0076446733 0.043249145 -0.043316443 0.0069867396

layer1.0.conv1.bias f4 [16]
00000000: f0bc e8bc a035 34bc bf41 49bd c716 e93c
00000010: ec6d 4b3d a3a8 00bd c2a4 863d c64b 9b3d
00000020: 2fc5 82bd 9e02 6e3b 8b51 273d 18e3 e43c
00000030: 95f0 9f3d 0ca3 fe3c 316f 91bc 284e a1bd
-0.028410405 -0.010999113 -0.049134966 0.028453244 0.049665377 -0.031410825 0.06574394 0.07582812
-0.06385266 0.0036317478 0.04084925 0.027940318 0.07809559 0.031083606 -0.017753216 -0.07876235

layer1.0.batch1.weight f4 [16]
00000000: 42d2 7a3f 7060 803f d2ab 793f 01a7 7c3f
00000010: 7c7a 823f 2be4 7e3f 580e 823f a8c6 7d3f
00000020: 7139 7d3f a59c 7a3f 9ec7 823f c1ba 823f
00000030: 851f 7a3f a41a 7e3f 5543 7c3f 0cb0 7b3f
0.9797708 1.002943 0.975278 0.9869233 1.0193629 0.99566907 1.0160627 0.9913125
0.98915774 0.9789527 1.0217168 1.0213243 0.97704345 0.992594 0.9854024 0.983155

layer1.0.batch1.bias f4 [16]
00000000: ee03 c3bc 00eb 0ebd f83d efbc f1c8 843c
00000010: 320c c63c d0f3 783a b95f c53a a1fa fb3c
00000020: 25ea 30bc efe9 1dbc 7f71 2ebb b229 133c
00000030: 1de6 8a3b 2707 1ebc b656 a7bd 5961 a3bd
-0.023805585 -0.034892082 -0.029204354 0.016209098 0.024175737 0.000949678 0.0015058435 0.030759158
-0.010798012 -0.009638294 -0.0026617942 0.008982109 0.0042388574 -0.00964526 -0.08170836 -0.07977552

layer1.0.batch1.running_mean f4 [16]
00000000: 2cad 4bbe cd74 64bc 6551 9f3e e1f0 41bf
00000010: 2952 76be a7ba 363e 95bf 803e 27ba dbbe
00000020: 6a46 673e 3eba b63e 0971 c3be 4a9f 99be
00000030: eae5 b93c 4c9f 4a3e cf3a 4f3f 20ce b23e
-0.19890279 -0.013943863 0.31116787 -0.7575818 -0.24054779 0.1784464 0.25146165 -0.4291546
0.22585455 0.35688967 -0.38172176 -0.3000434 0.02269264 0.1978733 0.8094911 0.34922886

layer1.0.batch1.running_var f4 [16]
00000000: bb17 c73d 0cc3 0e3e 15fc 7a3e 5cc7 823e
00000010: 26d6 363e 48c4 3e3e 2027 453e a00f 3a3e
00000020: 8824 873e 81ec 5a3e a9a9 8a3e 9255 403e
00000030: d537 033d bc5f f33d cefc 8c3e a8a1 693e
0.09721323 0.13941592 0.24510224 0.25542724 0.17855129 0.18629563 0.19253206 0.18170023
0.2639506 0.21379282 0.27082565 0.18782642 0.032035667 0.11883494 0.27536625 0.22815573

layer1.0.conv2.weight f4 [16, 16, 3, 3]
00000000: bc86 4abd 0e05 7c3b 732f a53d 0001 1fbd
00000010: 4e25 863d 55b4 993d 4166 fe3b 9b60 74bc
00000020: 856b dbbc b2bd 5abd 9b9f 963c 4eef 573d
00000030: 80ce 9fbd 8c1d 76bb 8e54 9b3c 3e0f 063d
00000040: 4da0 b0bc 4739 d03c 9e97 b6bd dfb9 5cbd
00000050: 8bd5 7bbc 89d5 72bc 371f 753d 350b 7a3c
00000060: 0eac b3bd d20c 94bb 6369 03bd 4b62 723d
00000070: 3274 01bd 4ed1 66bb 6491 973d faf4 3cbb
00000080: c0c1 8a3b 5c22 83bd c710 0f3d 15ac 003d
00000090: b360 293d bfbf 1bbd 04da 0bbc 3062 6cbd
000000a0: 410c 21bd 0bf2 cd3c 1e1d e7bc b128 253c
000000b0: 3476 f23d 10d4 b03d 139b 5b3d 9a5a 02bd
000000c0: 7cfd 9fbc b209 353d 80c3 bbbd 223f cf3c
000000d0: d69b 72bd 70cd 80bd 4f39 9abd 05dc 52bc
000000e0: 3f26 a23d 5ff3 d6bd 624b 8fbb f248 69bd
000000f0: f68f cabd dfac ba3c 19c5 223d cb4d 063d
00000100: 3a5f e13c de72 7dbd a15d a8bd 11fb b13c
00000110: da1c 5d3c 3a41 563d 6682 9d3d 2a64 a93d
00000120: bbc7 42bd 4ee3 67bc 7fbb 4ebc 9e17 303d
00000130: 0e8d e3bb 8bb0 1b3d 3ebc 53bd fe78 27bd
00000140: 79f2 103d 758b 563d 1f26 ac3c 50b6 dd3c
00000150: 5b8a 423d 6fb7 e4b8 ee6b 68bd 4dbc 87bd
00000160: efda 7f3c 450f 0fbc 6e59 82bc 8fc6 7b3d
00000170: 633e 8e3c 9452 a3bd f835 b83c 6bcf c13c
00000180: c0ca 06be 49b1 00bd 4ef4 593d 81ab f0bc
00000190: 87f2 41bd 66e7 b53d b908 95bd f7ec 8f3d
000001a0: 41d6 67bd b98a d53c 29f3 d2bd e5c8 17bd
000001b0: fe4a 43bd ad31 adbd c506 b13d 1bea a13c
000001c0: 4337 c8bb 37be bd3c 46fb a4bd 3057 6d3c
000001d0: 2fd0 9a3b b6b4 303d 14df b8bc 2b1f be3c
000001e0: 4138 b0bd c648 573d e1c3 56bd a428 3cbd
000001f0: e5ab 873d e4e8 763c 2c0a 923d 598c 84bd
00000200: 6897 a93d 0a34 463d b773 8cbc a97f fbbc
00000210: 6d30 99bb 42a1 97bd e849 b1bc b912 133c
00000220: f527 6ebc 4549 ab3c 358e fabc 5c67 0fbc
00000230: 4bcb 8fbd bd5d 98bd 5be4 ab3c 3d3f d63c
00000240: 3243 8fbc b28d 803c a535 923d 9933 de3c
00000250: 0526 d93c ffab 583d 0a29 4fbb 67e2 c53d
00000260: 6e3e 70bc d83f 7bbd 79ae 6a3d 17d9 3cbc
00000270: 5860 f9bc 5fdc 9cbb f8a9 663c 822e db3b
00000280: dfb6 d53b acc3 9d3d 3e94 af3d 9f95 093d
00000290: 8882 333c 47d4 48bd ee4c 153d d689 3abd
000002a0: e8f5 a83c 0765 623d b71c 9f3d d1e9 72bc
000002b0: 6cd3 a63d 157f c13c eb32 ef3c bf91 433d
000002c0: 099f 8ebc 262f 563d fcae 11bd 2601 9bbd
000002d0: d06e 763d 6fd7 e7bc 3fba 913c b54c 98bc
000002e0: f1f6 63bd 9e0c b73d a674 08bd 8299 893d
000002f0: effc 89bd b3db 48bd cabe fdbc 7a24 183d
00000300: f985 c73b b145 5e3d 6d15 2e3d 573a 143d
00000310: 5c4b 84bd ae14 0cbd 9e01 94bd 150d 2d3d
00000320: 6eb5 cf3c 5708 223d aa43 bbbd a884 263c
00000330: 89be 8abb 81f4 33bd 2cf1 c23c e094 253c
00000340: e454 6b3d bc1b 1cbc 9eb9 c5bc 0026 a43d
00000350: c6da c63d fcb3 c53c 774f 25bc dd3b e03c
00000360: e4a1 c7bb 6321 5ebd e1f0 73bd d4ad b53b
00000370: 49a1 70bd ec21 073c 5d78 973d 16fd 7abd
00000380: e393 063d 67a2 02bc 9f0c 083d cb89 32bc
00000390: 6fd0 053d 5bbc 94bc 3786 3fbd 68a5 793d
000003a0: f611 9cbc 3485 ac3c 552f 38bd 6c73 a83d
000003b0: 6110 1e3c 9832 e93c 08ee 83bc 6ddd 09bd
000003c0: cc95 c23c fc3e 333d 77a9 2b3c 7b1d 31bd
000003d0: 1f7a 173d 9dde b03c 0b32 b6bd a22e 913c
000003e0: 6638 473d 3334 dcbd c428 8b3b bcf4 20bd
000003f0: 92e3 123d 969c d03d e889 d1bb e484 743d
-0.0494449 0.0038455161 0.08065691 -0.038819313 0.06550084 0.07505099 0.0077636545 -0.014915611
-0.026784668 -0.053403564 0.018386653 0.052718453 -0.078030586 -0.0037554232 0.018961217 0.03272938
-0.021560812 0.025417937 -0.089156374 -0.053888198 -0.015370737 -0.014821419 0.059844222 0.015261461
-0.08773051 -0.00451813 -0.032082926 0.05917577 -0.031604953 -0.003521997 0.07400778 -0.002883254
0.0042345226 -0.06403038 0.03492811 0.03141411 0.041351985 -0.03802466 -0.008535866 -0.057710826
-0.039318327 0.02513983 -0.028212126 0.010080502 0.11838952 0.08634198 0.053614687 -0.031824686
-0.01953005 0.0441987 -0.09168148 0.025298659 -0.059230648 -0.06289184 -0.07530462 -0.01286984
0.07917451 -0.10495638 -0.004373 -0.05695433 -0.098907396 0.02278751 0.03973875 0.032789033
0.027511228 -0.061877124 -0.08220983 0.021726163 0.013495648 0.0523083 0.07690887 0.08271058
-0.04755376 -0.014153315 -0.012617945 0.042991273 -0.0069443053 0.03801016 -0.051693194 -0.04088687
0.03538749 0.05237909 0.021014271 0.027064472 0.047495227 -0.000109060544 -0.056743555 -0.066277124
0.015616163 -0.008731668 -0.015911784 0.061468657 0.017363733 -0.07974735 0.022486672 0.023658475
-0.1316328 -0.031419072 0.053211503 -0.029378654 -0.047350433 0.088820264 -0.07277054 0.07027619
-0.056600813 0.026067125 -0.10300285 -0.037056822 -0.04767894 -0.084567405 0.08643869 0.01976495
-0.0061101033 0.02316199 -0.08055739 0.014486119 0.0047245244 0.04314109 -0.02256731 0.023208221
-0.086044796 0.052559637 -0.0524329 -0.045937195 0.06624583 0.015070174 0.071308464 -0.06472082
0.082808316 0.048389472 -0.01714502 -0.030700522 -0.0046749623 -0.07403804 -0.021641687 0.008976632
-0.014535894 0.020908961 -0.030585388 -0.00875267 -0.07021197 -0.07439754 0.020982912 0.026153201
-0.017488096 0.015692566 0.07139138 0.027124213 0.026507387 0.052898403 -0.0031610155 0.096623234
-0.014663322 -0.061340183 0.057295296 -0.011526368 -0.030441448 -0.0047870125 0.01407861 0.006688894
0.006522044 0.07703337 0.08573197 0.033589955 0.010956414 -0.04903057 0.03645032 -0.045541607
0.02062507 0.05527213 0.07769149 -0.014826254 0.08145794 0.023620168 0.029199084 0.047746416
-0.017409818 0.052291058 -0.03556727 -0.075685784 0.060164273 -0.028300969 0.017789004 -0.018591264
-0.055655424 0.089379534 -0.03331437 0.067187324 -0.067376964 -0.049037647 -0.030974764 0.03714416
0.006088969 0.05426568 0.042500902 0.03618845 -0.06459686 -0.03419941 -0.07226871 0.042248804
0.025355067 0.039558735 -0.09143765 0.010163464 -0.0042341393 -0.04393435 0.02379664 0.010106295
0.057454005 -0.009528097 -0.02413636 0.080150604 0.097096965 0.024133675 -0.010089747 0.027372295
-0.006092297 -0.05423106 -0.059555892 0.0055444036 -0.058747564 0.008247834 0.07396004 -0.061276518
0.03285588 -0.00797329 0.03321516 -0.01089711 0.03266948 -0.018156221 -0.046758857 0.06094876
-0.019051533 0.02105961 -0.044967014 0.0822514 0.00964746 0.028466508 -0.016104713 -0.033658434
0.02375307 0.04376124 0.010477415 -0.043241005 0.036981698 0.021590525 -0.08896264 0.017722432
0.04863777 -0.10752144 0.004246803 -0.039295897 0.03586156 0.101861164 -0.0063946135 0.059697047

layer1.0.conv2.bias f4 [16]
00000000: 1a3f 6e3d b2da 3c3d ae77 003c baf1 c4bc
00000010: df19 743d a726 7bbd 206c adbc eca6 433d
00000020: 4398 5c3b 3d46 90bd 148f 82bd a196 a93d
00000030: ef5f 47bd ee0d 12bd 87ae 65bb 2250 403d
0.058165647 0.046107 0.007841034 -0.024041045 0.059594985 -0.06131616 -0.021169722 0.04776661
0.003366009 -0.07044647 -0.06374946 0.08280683 -0.048675474 -0.035657816 -0.0035046653 0.04695142

layer1.0.batch2.weight f4 [16]
00000000: 014e 843f 02e8 7e3f 2856 803f b613 7e3f
00000010: fd1a 7e3f 076a 7d3f 7dcb 803f 938f 783f
00000020: eef6 803f e061 7a3f 8b46 7b3f b813 7d3f
00000030: acb2 813f eb21 7d3f 006b 853f db70 7a3f
1.0336305 0.99572766 1.0026293 0.99248827 0.9925993 0.9898991 1.00621 0.97094077
1.0075357 0.97805595 0.98154515 0.98858213 1.0132651 0.9887988 1.0423279 0.97828454

layer1.0.batch2.bias f4 [16]
00000000: 6baa 9e39 7b04 0abc 5a73 99bc 5e7f ca3b
00000010: 3c79 c2bb d60a acbb 97e5 703c 8415 233b
00000020: eae5 0c3d 3b4a 663b ab59 a5bb dc34 f4ba
00000030: 30f1 bcbd 6bdc 993a 37f8 783c 3203 9bbc
0.0003026308 -0.00842392 -0.018731762 0.006179734 -0.0059348624 -0.005250315 0.014703176 0.002488465
0.03439895 0.003513946 -0.0050460896 -0.0018631476 -0.0922569 0.0011738663 0.015195898 -0.018922422

layer1.0.batch2.running_mean f4 [16]
00000000: 8dd5 fdbd b1a1 d63e 7667 06bf abf8 b63e
00000010: 8400 da3d bca4 6dbe 0243 f0bd 8a57 b13d
00000020: ab75 93be c9ef 0ebe c3ec 123f 1060 883c
00000030: a460 753e 1991 4cbd 02f9 49be 3e5d 0e3f
-0.12394247 0.41920236 -0.5250162 0.35736594 0.106446296 -0.23207372 -0.11731531 0.08659275
-0.2880071 -0.13958658 0.5739252 0.016647369 0.23962647 -0.049943063 -0.19723895 0.55611026

layer1.0.batch2.running_var f4 [16]
00000000: b45e 233e cd59 3b3e 78b0 0e3e 1dd6 f33d
00000010: 669a 323e 9646 9e3d 8595 463e 820f ee3d
00000020: 129e d63d 7077 0d3e 9c19 6a3e 39a4 1d3e
00000030: ed73 4e3e 98e5 d03d be76 9f3d d53d f43d
0.15954095 0.18295975 0.13934505 0.11906073 0.17441711 0.07728307 0.19392975 0.11624052
0.10479368 0.13815093 0.22861332 0.15394677 0.2016141 0.102000415 0.0778632 0.11925856

layer1.1.conv1.weight f4 [16, 16, 3, 3]
00000000: bd95 6fbd ad08 01bd 80ed 18bd 37c2 8f39
00000010: 2c9c a03d 87e9 4e3c 0b9c 9fbc 6b69 00bd
00000020: 0d27 b13d 23a1 123d 8c99 bd3d f5d5 933d
00000030: 5f0a a53c 8824 373d 1e66 34bd 7c90 f4bc
00000040: 9165 26bd 12ab 913d ce7a 323c 868e 103d
00000050: 2777 4ebd 0e94 ea3c c709 64bd d38b 02bd
00000060: 32a3 423d 19f4 ecbb 4fcc 7dbd 49a0 02bd
00000070: 807a 65bd eb46 163c c694 81bd 0aa7 863c
00000080: d068 ecba a1b1 bcbc 3759 b1bc 6b7c 5f3d
00000090: 27f1 88bb f325 0abd f3ad 67bc ee81 913d
000000a0: 877c c83c 247a 72bc e4e5 823d bc83 613d
000000b0: 8058 b63c 3d71 febc 4850 193d 05d4 aa3b
000000c0: 5d64 40bc 5f41 b4bc 3ae0 91bd a0e8 433d
000000d0: 0a31 d43c 9b68 26bd 2fc7 c63b d917 33bd
000000e0: d1b0 183d 797e 30bd 5e5e a53c 1dac 433d
000000f0: 7d8c 92bd 249d 2f3c 4b4a 2ebd 73e8 263d
00000100: 6011 22bd a417 31bd 5b59 ac3b 0ad5 8c3d
00000110: 318d 0bbd 71ab 10bc 4e73 75bd b06d 75bd
00000120: 48d3 87bd c2e7 b93c 351a 4cbd d833 6dbd
00000130: 41a2 423d 25e9 0e3b 067e c0bb b864 23bd
00000140: c89d 65bd 3f3a 953d b536 e7bc 14dc 4e3d
00000150: 7065 a03d 537a 39bd 086c 093d 1cb2 30bc
00000160: 98dc 05bc 37b8 8c3d 7b4e d4bc 76c3 113c
00000170: 14b1 babd 6ed1 0fbb 846c 75bd e038 26bd
00000180: cc42 85bd 6f85 8ebd f8d2 83bd 5ced c53c
00000190: 2451 84bd 2b84 9cbd 7225 85bd bad3 213d
000001a0: 58d4 183b cf0a b63c 602c 6cbb 2a53 353c
000001b0: 5072 623b e8f3 3f3d 6c88 263d 0ce4 e7bb
000001c0: b11e 193c 7486 9c3d da5d 70bd d595 c23d
000001d0: de31 9c3d aefa 84bd 3e5f 713d 538a 913d
000001e0: 24d3 c83c 6e17 5dbd 8511 92bd ff0b 873d
000001f0: a251 75bd db0b 15bc e4b2 833d 1ab6 8a3a
00000200: 80b3 dbbb 8dff 3c3d 4d5b b73d 9fe6 af3d
00000210: 0830 36bd b07b ee3a 7d11 6bbc c47c 47bd
00000220: ab68 a73b f400 f33c 7cc1 853c 8c7c 02bd
00000230: f4ea 283c 80af 963d 1f62 173d 493f 803c
00000240: c809 83bb 124f 67bd 7f23 2abc 470d 963a
00000250: bb52 76bd 1a19 74bd f9a7 2a3d 336f dcbc
00000260: 24f8 3d3d 2318 1bbd a785 8f3c 9c0f 18bd
00000270: f895 88bd 1d36 6cbd 8780 733d 340a 96bd
00000280: 94d1 81bd 9e16 7fbd 7845 0c3c 75dc e5bc
00000290: b1f5 983c 204c d33c d74e 06bd b706 f53c
000002a0: 08c4 01bd 893b e0ba c1fa 223d 95ec d93b
000002b0: cea5 3abd 7788 d7bc 1e02 1cbd c313 6abd
000002c0: a5aa 893d 156a 933d f056 53bd cba2 b9bd
000002d0: 852f 943d b28d 9a3d 4aef 1ebd 5d44 b93b
000002e0: 6040 953d 60b3 5dbd 991d 8f3d 5201 43bd
000002f0: 5fa6 94bd bb17 b0bd 8fa3 813c f9d9 9e3d
00000300: 4a2a 7dbc 7fb4 7e3d 788f 503d 737b 773d
00000310: 1687 71bc e98c 4a3d 3e18 d9bc bdd7 83bd
00000320: 5c72 193d 2d1f 84bd 4095 3ebd 8c28 a8bd
00000330: 3883 14bc 1275 593c 2c62 2cbc 4e52 863c
00000340: 72cd 383c 6f94 6e3c 1c54 723d c5d1 093d
00000350: 9a69 12bd 22a3 05bc fc5f 0abc bbb1 693c
00000360: 0835 2dbd 3940 bd3c 36c1 863d 5075 68bd
00000370: 58c1 cd3c 680c ad3b 3fe5 c0bd 0f36 f7bc
00000380: 808f 153b 9c0a 30bd 8dc6 2dbd 6e6b 3a3d
00000390: eca5 c03d 8cd5 1a3d 8496 163d a69f b13d
000003a0: ca20 0bbd 589c 2ebd e8f7 68bd 0ce1 8d3d
000003b0: 6890 0f3d 20cd e0bb 8974 383d 786d 94bc
000003c0: 968f 20bc fafa c23b 5a2c 84bd d481 723d
000003d0: 6797 8a3d 9d98 523d a5e2 9b3d 0dfe a43d
000003e0: 59bf 073d 157e 2e3d 811c 763d 0a1c 8abd
000003f0: 0615 633d 0d24 94bd 60a4 5ebd b63a 4dbd
-0.05849241 -0.031502414 -0.037335873 0.00027419787 0.078422874 0.012628919 -0.019483587 -0.031350534
0.086500265 0.035798203 0.09257802 0.072185434 0.020146547 0.044712573 -0.0440427 -0.029854052
-0.040624205 0.07112707 0.010893537 0.03529217 -0.0504066 0.028635051 -0.055673387 -0.031871628
0.047518916 -0.007231247 -0.061962422 -0.03189114 -0.05602503 0.009172182 -0.063272044 0.016437072
-0.0018036608 -0.023033919 -0.021648986 0.054562014 -0.004179138 -0.033727597 -0.014140594 0.0710486
0.024473442 -0.014799628 0.063915044 0.055057272 0.022258997 -0.031059856 0.037430078 0.005213263
-0.0117426785 -0.022003828 -0.07122846 0.04782927 0.02590229 -0.040627103 0.006066225 -0.043723915
0.037278 -0.043089364 0.0201866 0.047771562 -0.07155702 0.010718618 -0.04255132 0.040749025
-0.03956735 -0.043235436 0.0052596754 0.068765715 -0.034070197 -0.008829937 -0.059924416 -0.05991906
-0.066320956 0.022693519 -0.04982968 -0.05791077 0.04751802 0.0021806445 -0.005874398 -0.039890975
-0.056058675 0.072865 -0.028224329 0.05050285 0.07831848 -0.045282673 0.033550292 -0.010784652
-0.008170269 0.06871074 -0.025916329 0.008896699 -0.09115806 -0.0021944898 -0.05991794 -0.040581584
-0.06506881 -0.06959044 -0.064367235 0.024161033 -0.06460789 -0.076423965 -0.06501283 0.03950856
0.0023319926 0.02222195 -0.0036037192 0.011067191 0.0034553 0.046863467 0.040657446 -0.007076746
0.009345696 0.076428324 -0.058683254 0.095012344 0.07626699 -0.06493126 0.05892872 0.071064614
0.024514742 -0.053977422 -0.07132248 0.06594085 -0.059892304 -0.009097065 0.06430605 0.0010582835
-0.0067047477 0.04614215 0.08952961 0.08588909 -0.0444794 0.0018194821 -0.014347431 -0.04870297
0.005108913 0.02966354 0.016327612 -0.03185706 0.010309923 0.07357693 0.03695881 0.015655177
-0.0039989688 -0.05647189 -0.0103844395 0.0011448049 -0.06013749 -0.05959425 0.041664097 -0.026908493
0.046379223 -0.037864815 0.017519785 -0.03712426 -0.06669229 -0.057668794 0.059448745 -0.07326165
-0.06338802 -0.06227743 0.0085614845 -0.028059224 0.018671842 0.025793135 -0.03279003 0.029910428
-0.03168109 -0.0017107587 0.03978992 0.006650517 -0.04556828 -0.026310189 -0.038087957 -0.057147752
0.06722001 0.07197968 -0.051596582 -0.090642534 0.07235626 0.075465575 -0.038802423 0.0056539015
0.07287669 -0.054126143 0.06988067 -0.04760868 -0.07258295 -0.08598276 0.015825061 0.07756419
-0.015451977 0.062183853 0.050918072 0.060420465 -0.01474168 0.04945079 -0.026500817 -0.06437633
0.037462577 -0.06451259 -0.046529055 -0.08210859 -0.009064488 0.013272541 -0.010521453 0.016396668
0.011279451 0.0145617565 0.059162244 0.033647317 -0.03574524 -0.00815657 -0.008445736 0.014263566
-0.042286903 0.023101913 0.06579821 -0.056752503 0.025116608 0.00528102 -0.09418725 -0.030177144
0.0022821128 -0.042978868 -0.04242568 0.04551261 0.09406647 0.03780131 0.036764637 0.08673029
-0.033966817 -0.04262957 -0.056877047 0.0692769 0.035049826 -0.0068603903 0.04503301 -0.018118605
-0.009799859 0.005950329 -0.06453772 0.059205845 0.06767159 0.051415075 0.076115884 0.08056269
0.033141468 0.04260071 0.060085777 -0.06743629 0.05543997 -0.07233439 -0.05435598 -0.05010482

layer1.1.conv1.bias f4 [16]
00000000: bd25 10bd 1485 533c 4a72 cbbc 89ad 9e3d
00000010: 97ee 393d 3f06 d6bb ea0d 523d 6ffc 3dbd
00000020: 4c24 4abd af41 d83c aa22 c63c 365a ffbc
00000030: 7908 983d 80f5 383d 5e8e 013d a29c 6abd
-0.03519224 0.012910146 -0.02483477 0.07747943 0.045393553 -0.0065315063 0.0512828 -0.046383318
-0.04935102 0.026398508 0.024186451 -0.031170946 0.07423491 0.045156002 0.031629913 -0.057278283

layer1.1.batch1.weight f4 [16]
00000000: b900 7e3f 30fa 7c3f c8d6 7f3f dd56 7f3f
00000010: 07bf 7d3f 6ec5 7d3f 1920 813f 490b 813f
00000020: 8e68 7c3f bf67 803f e436 7e3f c378 7d3f
00000030: f36e 7d3f 213e 803f f049 7e3f 94a9 7d3f
0.9921985 0.98819256 0.99937105 0.9974192 0.9911961 0.9912938 1.008792 1.0081569
0.9859704 1.0031661 0.99302506 0.9901239 0.9899742 1.001896 0.9933157 0.9908688

layer1.1.batch1.bias f4 [16]
00000000: 7c70 283b de61 59bc 281c d83b cbe4 743b
00000010: e0bc 22bd 1684 83bb 2f91 603a 68d8 78bc
00000020: 2a99 9fba d0ce caba 514a c83b 8182 47bc
00000030: 3f7d 65bc e98f bcbc 97c0 a2bc 4a1d 923b
0.0025701812 -0.013267962 0.0065951534 0.0037367817 -0.039730906 -0.0040135486 0.0008566556 -0.015188314
-0.0012176384 -0.0015473012 0.006112375 -0.012177111 -0.014006912 -0.02301784 -0.019867225 0.004459058

layer1.1.batch1.running_mean f4 [16]
00000000: 9722 f4bd b943 6bbe 4570 4fbd 403d 593e
00000010: 6af5 153f b4bb 843f b042 213e 5b7e f2be
00000020: 5c2d 10bf c744 37bf 5ea6 f6be 35bf a6be
00000030: a97b cebe 4ffc 103e 7aca 793c 000e b93b
-0.1192066 -0.22975053 -0.050644178 0.21214771 0.585776 1.0369782 0.15748096 -0.47362027
-0.5631921 -0.7158932 -0.48173803 -0.32567754 -0.4032872 0.14158748 0.015246028 0.005647421

layer1.1.batch1.running_var f4 [16]
00000000: 9feb f13e 1bb7 693e 7de3 7b3e 8477 5c3e
00000010: aa7b d73e c45e c13e 7030 263f 0317 303e
00000020: 326b c33e 53c8 c73e 498d 643e 0e0c f03e
00000030: 4d4f cc3e fe5f 1b3e fd37 f73d 5ed0 993e
0.47250077 0.22823755 0.24598499 0.21529967 0.42086536 0.37767613 0.6491766 0.17196278
0.3816772 0.39020023 0.22319521 0.46884197 0.39904252 0.15173337 0.12071226 0.30041784

layer1.1.conv2.weight f4 [16, 16, 3, 3]
00000000: b74b 663c 537b 5f3d b648 96bd c15f d63c
00000010: 37ba c2bc 58e5 fabc 151f 883c c7cb ff3b
00000020: 97e5 4b3d be1f e2bc 62a3 05bb baba 4dbd
00000030: b1e8 04bd 51a4 753c d999 b53d 24d2 83bb
00000040: 11a4 263d 3fb6 b33d a9a5 0fbc 428c f6bc
00000050: 72e4 9a3d d603 b5bd 3e6d 5bbd eb18 893d
00000060: 0102 ec3c 84c4 cb3c 6d5a 16bc f06d 903a
00000070: f5b7 a7bc 129c fb3c 9b1a 4c3c a2c3 053c
00000080: b5ad 493d 21a4 823d b1c7 83bd b590 3a3c
00000090: 0512 dfbc 22a2 e1bc 42ac a2bc 63a3 4fbc
000000a0: d16e 9abc a7a9 463b 5303 65bd a9a5 c0bc
000000b0: 5ef6 3bbd 3067 03bc bc4f d03c f5b7 ea3c
000000c0: 93c4 a9bd 5e6b 09bc e13c 633c e2b5 24bd
000000d0: e925 8ebd c3ae 563d 4a1a aebd 47fc 60bd
000000e0: 68fe b7bd 4693 9abd 391f 67bd ac78 383d
000000f0: 9c80 873d 5aec 263d 6112 62bc 2672 dabd
00000100: 813f e5bc 05ee 233c 62fb 36bd d5b4 8c3d
00000110: 0693 153c 7f08 a5bd b064 11bd 5516 683d
00000120: 85d8 043d 4dcc c9bc 4194 89bd d2df 79bd
00000130: acfb 84bd 26ba 7d3d 894b c6bc 067a afbc
00000140: 2191 093d 2515 e2bc 345c 3b3d ab14 0fbd
00000150: df0f 123d 1c0b 84bd cdd5 1bbd 2aaf a13d
00000160: 27f5 a6bd 39b6 ba3c e487 c53b db0a db3c
00000170: b4f4 3abd 4025 8abd 7691 5a3d 80ce 98ba
00000180: dfee 4fbd 5ae4 963c 6650 913d bdd8 7d3d
00000190: 14dc b4bd 9f4e 86bd 9849 cbbc 1fd7 013c
000001a0: 8bbd c43c 1045 3e3d 3450 2f3c f127 4d3c
000001b0: 32fb 05bd b748 f6bb d186 b83d e1b6 9ebd
000001c0: 83cc 83bd afd7 34bd 6ad1 be3c 5fc6 8cbd
000001d0: ccd8 60bd 553e adbd 07e1 32bd bdb9 793d
000001e0: 09fa 30bc 3328 17bc 9331 a73d 2e89 0d3d
000001f0: fdf3 343d 8e4e 073b f09a 1ebd 7ac8 5a3c
00000200: 53bc 54bd 8687 6bbb 77a2 b7bc b4a8 843c
00000210: 43ef 88bd e51e bc3d 863a 3e3d 6dc2 36bd
00000220: 9608 a5bd 4e6b a23c 2329 fdbc a250 17b9
00000230: b0fa 923d 71f3 8b3c aef9 4b3d 840e cebc
00000240: 8c93 933b cc2f 833d 3c93 963d d5cf 8fbc
00000250: fb8a 2bbd c504 933d 5224 25bd cb2e a5bc
00000260: 4a48 ac3d d380 ffbc b20c ac3d bfee 113d
00000270: 2cb7 e93a 57d6 39bc b40b cfb9 b83f 0dbd
00000280: 7991 8d3d 3f02 b4bb cd24 2dbb 1f4f bdbd
00000290: 6e46 75bd 0ce1 263d f10e 883d 0d02 60bd
000002a0: 0511 843d 8dd1 98bd 6a3a e73c b474 a9bd
000002b0: 76ff 323d 79b1 833c 35ce c4bd 8111 93bd
000002c0: 295e 5dbd 5ed9 5dbc 81ef 343d ee51 99bd
000002d0: 168e 16bc 2380 873c 419c 633d f71e d3bc
000002e0: 3333 0ebd 9102 cf3c 80bf 2a3c 2c80 ac3c
000002f0: 738a 133d 7d01 1d3c 5507 0d3d 2d39 983d
00000300: 2d86 4d3d b295 843d c1ce 883d 7019 a3bd
00000310: 7b32 783d 3cbf 25bd 368d 6f3d 1d40 b43d
00000320: 6907 353d c389 bbbc 6e32 4cbc de2d 543d
00000330: 3605 963d 1e36 093d 7bdd c2bb 3123 33bb
00000340: 7228 e23c b454 863d 9c26 12bd f1eb fb3c
00000350: 2434 2c3b abdf 2e3d c737 833d e09f 333d
00000360: 7c63 213d de91 69bd 6715 963c 0f73 993c
00000370: 65e8 1e39 b3bf 96bc 9a09 9fbd 8bd5 08bd
00000380: 713c 373d 04b6 a0bd d7da 063d 6d21 ad3d
00000390: 4abf 393d 0774 aebc 3135 e93b 94f8 653d
000003a0: f890 00bc 138e c63b d70b 063d af2f 4b3c
000003b0: 4a40 bbba 563f 863d 6a2e a33c 1c6c 7ebd
000003c0: 7d8b 0ebd d0fb 203d 9e37 9bbc 8156 4fbc
000003d0: d878 0f3d 5af8 843d 7182 903d 0224 1fbc
000003e0: 653b 153d 216f 86bd f64c aebc bcaf 90bd
000003f0: 0080 b73b 8453 283c f255 5a3d 48b9 233d
0.014056138 0.05456097 -0.07338087 0.026168706 -0.023770435 -0.030626938 0.016616384 0.0078062746
0.0497795 -0.027603026 -0.0020391573 -0.050226904 -0.032448474 0.014992789 0.08867235 -0.0040228534
0.04068381 0.08774995 -0.008767524 -0.030096177 0.07563104 -0.08838622 -0.05357098 0.06694206
0.02880955 0.02487398 -0.009176833 0.0011019092 -0.02047346 0.030714069 0.012457515 0.008164318
0.049237926 0.06378961 -0.064345725 0.01138704 -0.027230272 -0.027543131 -0.01985753 -0.012673232
-0.01885167 0.0030313523 -0.055911373 -0.023516493 -0.04588925 -0.008020207 0.025428645 0.02865217
-0.08289447 -0.008387415 0.013869495 -0.04021252 -0.069408245 0.05241276 -0.08501108 -0.05492809
-0.08984071 -0.075476214 -0.05642626 0.045036957 0.06616327 0.040752746 -0.013798327 -0.10666303
-0.027984383 0.010005479 -0.04467333 0.068704285 0.009129291 -0.08058261 -0.035496414 0.056661922
0.03243305 -0.024633551 -0.0671773 -0.061004467 -0.06493315 0.061945103 -0.02420594 -0.02142049
0.03358567 -0.027597973 0.04574223 -0.03493182 0.035659667 -0.064474314 -0.038045693 0.07894738
-0.08152228 0.022791969 0.0060281623 0.026738575 -0.045643523 -0.06745386 0.05336138 -0.0011658221
-0.050764915 0.018419433 0.07095413 0.061974276 -0.08831039 -0.065579645 -0.024815366 0.007924824
0.024016162 0.046452582 0.010700274 0.01252173 -0.03271026 -0.0075159925 0.09010089 -0.07749725
-0.06435492 -0.044151004 0.023293216 -0.06873774 -0.054894254 -0.084591545 -0.043671634 0.06096815
-0.0108018005 -0.009225893 0.081637524 0.034554653 0.044177998 0.0020646187 -0.03872198 0.013353461
-0.051937412 -0.0035938933 -0.022416336 0.016193725 -0.066862606 0.0918558 0.04644253 -0.044619013
-0.08058278 0.019826557 -0.030903405 -0.0001443052 0.07176721 0.017083855 0.04979866 -0.025153406
0.004503673 0.06405601 0.073523015 -0.017555157 -0.04188059 0.07178644 -0.04031784 -0.020163914
0.084122255 -0.031189358 0.08400859 0.035628077 0.0017831079 -0.0113426065 -0.00039490836 -0.034484595
0.06912512 -0.005493432 -0.002641964 -0.09243607 -0.05988162 0.040741965 0.06643475 -0.054689456
0.06448559 -0.07461844 0.028226096 -0.082742125 0.043700658 0.016075836 -0.09609643 -0.07181073
-0.054044876 -0.013540594 0.04417372 -0.0748633 -0.009189149 0.016540593 0.055568937 -0.025771601
-0.034716796 0.025269778 0.010421634 0.02105721 0.036020707 0.009582874 0.03443082 0.074327804
0.050176788 0.064738646 0.0668006 -0.07963836 0.060595017 -0.04046558 0.05848428 0.08801291
0.04419652 -0.022892838 -0.012463195 0.051801555 0.07325213 0.033498876 -0.0059468127 -0.0027334208
0.027607176 0.065591246 -0.035681352 0.030752154 0.0026276195 0.042693775 0.06407123 0.04385364
0.039401516 -0.057023875 0.018320752 0.018731622 0.00015154628 -0.018401956 -0.07765503 -0.033406775
0.044735376 -0.07847217 0.032923546 0.08453641 0.045348443 -0.02129556 0.0071169366 0.056145266
-0.007847063 0.006059417 0.032726135 0.012401505 -0.0014286127 0.06555049 0.019919593 -0.06211482
-0.034800995 0.039302647 -0.018947419 -0.0126549015 0.035027355 0.06492682 0.0705613 -0.009713175
0.036433596 -0.06564165 -0.021276932 -0.07064769 0.0055999756 0.010273818 0.05330462 0.03997162

layer1.1.conv2.bias f4 [16]
00000000: 3bf5 a4bd f030 65bd 6670 133d aec8 003b
00000010: 08fd 35bd 74c1 e3bc 114c 933c 2f05 5c3d
00000020: 3afb c1bc 80d2 03bd b1a3 a1bc 6990 8cbd
00000030: 43bd 7dbd 47f7 a43d 3408 c63c 95d6 a43b
-0.080545865 -0.055954874 0.035995863 0.0019650864 -0.044430763 -0.027802207 0.017980607 0.05371588
-0.023679364 -0.03218317 -0.019731374 -0.068634816 -0.061948072 0.08054977 0.024173833 0.005030463

layer1.1.batch2.weight f4 [16]
00000000: 6947 803f 774c 7e3f 460e 823f 31dc 803f
00000010: 85b5 823f f0d6 7a3f 1a8d 7d3f 2e89 803f
00000020: 1c7b 803f e580 803f 4e07 7f3f 3d92 7e3f
00000030: 0272 843f 220d 7c3f aacc 803f fb3e 803f
1.0021793 0.99335426 1.0160606 1.0067197 1.0211645 0.9798422 0.9904343 1.0041864
1.003757 1.0039335 0.9962052 0.9944189 1.0347292 0.9845754 1.0062459 1.001922

layer1.1.batch2.bias f4 [16]
00000000: 1bb5 d6bb 70de 83bc 6b91 7abc e042 223c
00000010: ab44 e5bb d474 cc3b b42e b73c 6889 8ebb
00000020: d145 ff3c 56b6 68bc c631 beba 03a3 cb39
00000030: cc9f d4bc cc21 7f3a d6a4 4bbc dfd7 a6ba
-0.006552351 -0.016097277 -0.015293459 0.00990364 -0.0069967113 0.006239513 0.022361137 -0.004349876
0.03116122 -0.0142036285 -0.0014510683 0.0003884063 -0.025955103 0.0009732514 -0.012429437 -0.001272913

layer1.1.batch2.running_mean f4 [16]
00000000: 5062 c3be c712 de3e 7e6e 4d3f f125 95be
00000010: 21a8 81be 35ae 89bd 6da3 45be f430 443e
00000020: 1bb1 99be b318 6a3e 3e16 71be be78 3a3e
00000030: 77e4 5b3c c38b 213d 2475 d43d bff4 b2be
-0.38160944 0.433737 0.8024672 -0.2913051 -0.25323585 -0.067226805 -0.19300623 0.19159299
-0.30017933 0.22860985 -0.23543641 0.18210122 0.0134211695 0.039439928 0.10373905 -0.3495235

layer1.1.batch2.running_var f4 [16]
00000000: c87e 0c3e 88e3 133e 87a1 1b3e 34ea 4f3e
00000010: d72a e13d 2c5a 063e 5e74 143e 0c5c 0e3e
00000020: be29 513e 8967 223e eca2 dd3d a272 193e
00000030: 5f31 093e 40a6 b53d 37e3 a13d a5da 183e
0.13720238 0.14442265 0.15198337 0.20304185 0.10994499 0.13120335 0.14497516 0.139023
0.2042608 0.15859808 0.108220905 0.14985135 0.1339774 0.088696 0.07904666 0.14927156

layer2.0.conv1.weight f4 [32, 32, 3, 3]
00000000: 6d1e b63c 8a48 31bd 5c45 993b 1c6d f83b
00000010: efd1 96bc 0dad 6bbd af59 30bc ad01 873c
00000020: cf02 283d e9a5 96bc a59a ddbb 3e76 af3c
00000030: 3628 04bd cc09 99bc eb08 82bd 27ae 153d
00000040: 772d 67bd 1c37 69bc 026c 7b3d 4223 953c
00000050: 38f8 5d3d 3d32 a53c 8741 433d 28c5 de3a
00000060: 7d53 9f3c ef99 7c3c 792f 143c 86a6 9dbc
00000070: d362 4abb 25a2 33bd 2c5c ae3c aca3 843b
00000080: 7a36 f9bc 21c4 f23c be01 153d cbfc b4bc
00000090: c82e 323d 029e 64bd 31f5 ebbc 7072 bebc
000000a0: 6bb8 0a3d dcb2 c7ba 30d0 1c3c 0850 5c3d
000000b0: 5bbb 2f3b 6f48 e73c a053 49bd 3689 df3c
000000c0: 5b0b 2d3c eea0 2a3d a87a 46bc b82f 8cbc
000000d0: c01e 9b3c 0f3f 91bb 71a1 95ba bccb 4fbc
000000e0: 81a8 39bd 55e2 98bc dba8 22bd 0265 7c3c
000000f0: 7abb c7bb 8d70 1e3d 36e0 20bd 07bf 2abd
00000100: f0ae 48bd 545c 213d d81f 193d 35fa 2abd
00000110: f422 1dbd d4cd 42bd 2e89 01bc 2012 f33b
00000120: b590 cd3c ed81 87bc 4820 31bc e2f6 3b3c
00000130: bd7a a03c 4e19 6dbd 3a96 66bd ca1f e33c
00000140: 20f6 31bd 24d8 8fbc 04a7 0d3b afc0 cabc
00000150: 4918 f83b f55c 003a 9efc 263d 73a9 423d
00000160: 8a01 27bd 012c 43bd b48e 2a3d ac63 82bd
00000170: e9a2 32bc 7e52 603d b3ba ce3c a98b c43c
00000180: 93e0 91bc ecb6 b9bb 950f 1dbd 4f7a 5c3d
00000190: 02cd 933b a448 4e3c d264 73bc bf26 27bd
000001a0: 5585 583d a711 c7bc cf4b f03c ebd8 cfbc
000001b0: 5548 f83c 7fa7 1dbd 42bf a4bc 9024 6f3d
000001c0: 9ff3 31bc 7653 cebc aab8 bbbc f748 353b
000001d0: e4bd 4cbd 4fe7 18bd 388a dabb b6ce 333d
000001e0: f6b9 13bd 5c73 783d f32d dc3c f658 0f3d
000001f0: ac1b 6fbd b5f4 db3c 7fbf 723d f96e 5ebd
00000200: a68f d83b 21f2 c7bc 2455 e6ba 95c0 a63c
00000210: 1058 c4bc 5fe1 1bbd 60ca 45bd 4617 363b
00000220: 71f6 cabc ba8f 3dbd afc7 b1bc c3b3 10bc
00000230: 17e7 473b d0f7 4abd bde1 83bc aaa7 63bd
00000240: 7705 d7bc 743e 4a3b 5cb2 02bc 5dce 093d
00000250: 615b 603d 7c43 593d 2313 46bd 8474 1a3d
00000260: 819b 903c fb82 483d fb9b f63c fdb2 593d
00000270: 7eae 57bb 9214 68bd bd03 a53c 5acc 393d
00000280: 768f 05bd 662e 9a3b 9db6 b53c 38fd e3bc
00000290: 0019 493d a114 36bc 8213 e83c 1ab9 503c
000002a0: 7ff7 4e3d 70fe 35bd 136d a1bc aece 09bb
000002b0: 5b87 01bd 85b6 5abd 71bd c43c 3156 8b3c
000002c0: 25aa c8bc 950b ea3a a046 6e3d d62a 553c
000002d0: 2e20 03ba b98e 44ba 1309 2dbd 8aee d7bc
000002e0: f3ac 073d 783d ddbc f336 813c 9eae 483b
000002f0: 038f 643d 064e 91bc db04 5d3c c5ce 43bd
00000300: 21e0 953c 8ce5 6dbc 0741 d8bc 112f 57bd
00000310: e1ce e9bc 0731 b8bc b0be 583d 69ff 963c
00000320: 72b7 5a3d 6ba6 2cbc ffb1 e93c 782f ec3c
00000330: 367d 2bbd 497f 37bc e608 293d e20f 34bb
00000340: 540f 31bc 9ec4 2dbd 9e98 573d 2783 3f3d
00000350: 98e9 92bb 0cb0 f63c 88ad 58bd 9005 813c
00000360: 5ca4 12bc aa43 1f3d 0584 d3bc 60ed 0ebd
00000370: de03 9c3c b907 c3bc f1e1 963b b25b 36bc
00000380: 83b0 5fbd a4c8 ec3c 1168 403d 7af8 99bc
00000390: 438c 63bb 9be5 523d f392 603d b349 7cbc
000003a0: a7e3 58bd 3de3 083d c1ed eabc 8541 47bc
000003b0: 76c0 15bd d1da 253c 57ce c33c 5725 693d
000003c0: 4bf0 c13c ff2a 273d e8a1 173b 530b 37bd
000003d0: 2e6e 733d d124 123c 979f 013b 54c0 883d
000003e0: 14e1 af3c 5674 663d 2946 293d b0c5 ee3c
000003f0: 5702 e63b d877 7abb 9dba 4c3d e976 0e3d
0.022231305 -0.04328207 0.0046774577 0.007581366 -0.018410651 -0.05753808 -0.01076357 0.016480291
0.041018303 -0.018389659 -0.00676282 0.021418687 -0.03226491 -0.01868143 -0.06349357 0.036543038
-0.056439843 -0.0142343305 0.0613823 0.018205289 0.054191798 0.020165557 0.047669914 0.0016996013
0.01944899 0.01541756 0.0090445215 -0.019244444 -0.0030881658 -0.043855805 0.021284185 0.0040478315
-0.030421484 0.029634537 0.036378615 -0.022093197 0.043501645 -0.05581475 -0.02880344 -0.023247927
0.03386728 -0.0015235799 0.00957112 0.05378726 0.0026814553 0.028232781 -0.049152017 0.027287107
0.010561789 0.04165738 -0.0121142045 -0.017112598 0.018935561 -0.004432566 -0.0011415911 -0.012682851
-0.045326713 -0.018662611 -0.039711814 0.0154049415 -0.006095347 0.038681556 -0.039276324 -0.041686084
-0.04899496 0.03939469 0.037383884 -0.041742522 -0.038363412 -0.047559574 -0.007906241 0.007417932
0.025093416 -0.016541446 -0.010810919 0.011472436 0.019589776 -0.05788546 -0.05629561 0.02772512
-0.043447614 -0.017559119 0.0021614442 -0.024750082 0.0075712544 0.0004896664 0.04076826 0.04752488
-0.040772952 -0.047649387 0.04164 -0.06366667 -0.010903099 0.05476617 0.02523551 0.023992376
-0.01780728 -0.005667558 -0.03834494 0.05382758 0.004510523 0.012590561 -0.01485558 -0.040808436
0.05286153 -0.02430041 0.029333023 -0.02537199 0.030307928 -0.038489815 -0.02011073 0.058384478
-0.010861306 -0.025186282 -0.022915203 0.0027661899 -0.04998578 -0.037329968 -0.006669309 0.043898307
-0.036066018 0.06065689 0.026877379 0.03499695 -0.058376 0.026850084 0.059264656 -0.05430505
0.006608921 -0.024407448 -0.0017572981 0.020355502 -0.023967773 -0.038056727 -0.048288703 0.0027784868
-0.024775716 -0.046279646 -0.021701662 -0.008831921 0.003050273 -0.04955274 -0.016098851 -0.05557982
-0.026247723 0.003085998 -0.0079770945 0.03364407 0.054774646 0.053042874 -0.048358094 0.037708774
0.017652275 0.048953038 0.030103674 0.053149212 -0.0032910402 -0.056660242 0.020143384 0.0453609
-0.032607518 0.004705238 0.022181803 -0.027830705 0.049096107 -0.011113317 0.028329615 0.012739444
0.050529 -0.044432104 -0.019705331 -0.0021027732 -0.031623226 -0.05339672 0.024016114 0.017008873
-0.024495194 0.0017856235 0.058172822 0.013010701 -0.00050020486 -0.0007498074 -0.042244982 -0.026358861
0.03312392 -0.02700685 0.015773272 0.0030621658 0.05580045 -0.0177374 0.013489927 -0.047804613
0.01829535 -0.01452006 -0.026398195 -0.05253512 -0.02854103 -0.022484316 0.05291623 0.018432336
0.053397603 -0.010537724 0.028527258 0.028831229 -0.041867457 -0.011199781 0.04126825 -0.0027475287
-0.010806877 -0.042423837 0.05263578 0.046755936 -0.004483413 0.030113243 -0.052899867 0.015749723
-0.008950319 0.03888289 -0.025819788 -0.034894347 0.019044813 -0.023807393 0.004604571 -0.01113026
-0.054611694 0.028904267 0.046974245 -0.01879524 -0.0034721054 0.0514885 0.05482764 -0.015398431
-0.05295148 0.033419836 -0.028677823 -0.012161617 -0.0365605 0.010122971 0.023902101 0.056920376
0.02367415 0.04081249 0.0023137275 -0.044688534 0.059431247 0.0089199105 0.001977896 0.06677309
0.02146963 0.05626329 0.041326676 0.029147 0.007019322 -0.0038218405 0.049982656 0.03478137

layer2.0.conv1.bias f4 [32]
00000000: 5877 003d 1262 b9bc fda6 8d3c cc43 a43c
00000010: dcb8 383d f0b3 34bd 1e11 b63c 6941 1d3d
00000020: f608 dd3c 10ac 90bc 6583 6e3c ad07 5bbd
00000030: 5c63 0ebc 84bf ecbc a599 27bc bccd fe3c
00000040: 7b2e a43b f71c 9bbc b3f2 1c3d 30f4 553c
00000050: 0423 283d 11bd 643d a489 71bc a3b8 513c
00000060: 8579 3f3b 23de 3abd b796 dd3c e795 553d
00000070: 756c 243d f483 70bc 18de 9b3c 13d1 05bd
0.031363815 -0.022629771 0.01729154 0.02005186 0.04509817 -0.044116914 0.022224959 0.038392458
0.026981812 -0.01766017 0.014557694 -0.053474117 -0.008690681 -0.028899916 -0.010229503 0.031103961
0.0050104237 -0.01893471 0.038317394 0.013058707 0.04104902 0.05584437 -0.014742289 0.0128003685
0.0029216718 -0.045622002 0.027049406 0.05214491 0.040142495 -0.014679898 0.019026801 -0.03267009

layer2.0.batch1.weight f4 [32]
00000000: 4519 7f3f e7c4 7f3f 2b59 7f3f 60cf 7e3f
00000010: 8635 823f 8178 7d3f fd24 7e3f aafe 7f3f
00000020: f49c 7c3f ca6f 7f3f a455 7d3f dfcb 7f3f
00000030: bf38 7e3f fe16 7d3f e2fb 7d3f 6d74 7f3f
00000040: 24f5 813f 40fd 7c3f f417 7c3f 00ba 7d3f
00000050: daef 7b3f 63d6 803f be5b 7e3f 5281 7e3f
00000060: b10d 7e3f 7b0d 803f effd 7d3f 80d1 7d3f
00000070: f24a 7e3f 217e 7f3f a158 7e3f 421f 7f3f
0.99647933 0.99909824 0.99745435 0.9953518 1.0172584 0.99012 0.9927519 0.9999796
0.9867699 0.9977995 0.989588 0.9992046 0.9930534 0.9886321 0.9921247 0.99787027
1.0152936 0.9882393 0.9847405 0.9911194 0.9841286 1.0065426 0.9935874 0.9941608
0.9923964 1.0004114 0.99215597 0.99147797 0.9933311 0.9980183 0.99353987 0.9965707

layer2.0.batch1.bias f4 [32]
00000000: 26a5 c5ba 9386 8ebb d077 52bc b235 a5bb
00000010: a06d afbc e9d6 c03a 04f3 64bb 842d 89bc
00000020: adbe b6bc fad3 143b 81cf dcbc 4c0c df3b
00000030: b2dd 16bc dc0f 30bc 7284 a3bb d6d6 fabb
00000040: 323e 5dbd b2bb 46bc 9821 94bb 58f0 05bc
00000050: f157 79bc fe2d bfbc cb2f 67bc 0ff0 91bb
00000060: a056 25bc e62c fabb 38a7 023b dc33 4dbc
00000070: a065 803a 36ed a7bb 0d13 273b 0594 aabc
-0.0015079125 -0.0043495386 -0.012845948 -0.0050418014 -0.021414578 0.0014712486 -0.0034934888 -0.016745336
-0.022307718 0.0022709356 -0.026954414 0.006806886 -0.00920813 -0.010745969 -0.004990154 -0.007655005
-0.054014392 -0.012129711 -0.0045206062 -0.008174978 -0.015218721 -0.02333736 -0.014110516 -0.004453666
-0.010091454 -0.007634747 0.0019936096 -0.012524571 0.0009795912 -0.0051247133 0.0025493533 -0.020822534
